model001_ep10.pth (torch, 331565 bytes, 13 tensors)

conv1.weight f4 [6, 3, 5, 5]
0	0xbb22134c	-0.002473074
1	0x3d793ef0	0.060851038
2	0xbd178e4a	-0.03700093
3	0x3d181dfa	0.037137963
4	0x3d475f4e	0.048674874
5	0xbd0b80a5	-0.03405823
6	0xbd6e002f	-0.058105644
7	0x3e024820	0.12722826
8	0x3de926ca	0.113843516
9	0x3b98d0aa	0.0046635466
10	0xbd7af07f	-0.06126451
11	0xbd060001	-0.032714847
12	0x3db03ed1	0.08605731
13	0xbe17607f	-0.14782904
14	0x3d8e80d5	0.069581665
15	0x3d0554d9	0.03255162
16	0xbd62efcc	-0.05540447
17	0x3c8f5194	0.017494954
18	0x3cc65c4b	0.02421393
19	0x3dc977cb	0.09837302
20	0x3c9250f8	0.017860875
21	0xbd5e92e1	-0.054339293
22	0x3bf9d9cb	0.00762484
23	0xbd87be7e	-0.066281304
24	0xbdcc10b9	-0.09964127
25	0x3d221dbb	0.039579134
26	0x3dd664af	0.104684226
27	0x3d293015	0.04130562
28	0xbcbe765d	-0.0232498
29	0xbd885c33	-0.066582106
30	0x3dcec9f6	0.10097115
31	0x3d667b63	0.056270014
32	0x3de04f4d	0.109526254
33	0x3d517025	0.05113234
34	0x3c539ccc	0.012915801
35	0x3db5382a	0.08848603
36	0x3d923b60	0.07140231
37	0xbd491eb1	-0.049101535
38	0xbc8dd3cb	-0.017312905
39	0xbd8edff8	-0.069763124
40	0xbd213393	-0.039355826
41	0xbdc34ae8	-0.095357716
42	0xbdf8ef0f	-0.12154972
43	0x3cf4746f	0.029840676
44	0x3deffa31	0.11717642
45	0xbdaf5aea	-0.08562262
46	0x3ccf24aa	0.025286037
47	0xbcc53717	-0.02407412
48	0x3d1cf78a	0.03832201
49	0xbd6cf8d7	-0.0578545
50	0xbd92c367	-0.07166176
51	0xbd4b94c5	-0.049702425
52	0x3db5b778	0.088728845
53	0xbd2c1032	-0.042007633
54	0x3de0a5d4	0.10969129
55	0x3c851b85	0.016248474
56	0x3deb13d6	0.11478393
57	0x3e110262	0.14161065
58	0x3dbfc03a	0.09362836
59	0x3b36467e	0.0027813013
60	0xbd445581	-0.047933105
61	0x3d95fff0	0.07324207
62	0x3d06db04	0.032923713
63	0xbdac83e2	-0.08423592
64	0x3c3ae10d	0.011406195
65	0x3d9dfc47	0.07714134
66	0xbc89c90c	-0.0168195
67	0xbe2a64aa	-0.16639963
68	0x3cab913d	0.020943278
69	0xbd6f444d	-0.058414746
70	0x3d1edf7d	0.038787354
71	0x3d43c4bb	0.04779504
72	0x3d14c4b1	0.036320392
73	0xbdb0992d	-0.08622966
74	0xbe016eb5	-0.12639888
75	0x3e027cf0	0.12742972
76	0x3cee968c	0.02912452
77	0xbe170002	-0.14746097
78	0xbdd59231	-0.104282744
79	0x3b10933a	0.002206041
80	0x3e122004	0.14270025
81	0x3d4930c3	0.04911877
82	0xbd3ecf46	-0.04658439
83	0xbd6e90e7	-0.05824366
84	0xbdbff237	-0.09372371
85	0x3df323d2	0.118720666
86	0x3d3add0c	0.045620963
87	0xbb354c0b	-0.0027663733
88	0xbdac93ad	-0.084266044
89	0xbb8f4ef9	-0.004373428
90	0xbbc543b5	-0.006020034
91	0x3e331d46	0.17491636
92	0x3dbd4d1b	0.09243222
93	0xbe2dad5d	-0.16960664
94	0xbd82e5bf	-0.06391477
95	0x3c22bbcf	0.009932472
96	0x3c270eda	0.010196412
97	0xbc5269c6	-0.012842601
98	0x3d635e74	0.05551
99	0xbd357e98	-0.044310182
100	0x3db29784	0.087203056
101	0xbcdf7cfb	-0.027281275
102	0xbe1615b1	-0.14656712
103	0xbaf13bd8	-0.0018404676
104	0xbcd917af	-0.026500551
105	0x3e0ffe25	0.14061792
106	0x3e0a696b	0.13516776
107	0xbe0ee6c1	-0.13955213
108	0xbd35eacf	-0.044413384
109	0xbcf33424	-0.029687949
110	0x3d4e15d1	0.050313774
111	0x3e08dc6e	0.13365337
112	0x3b1e209e	0.0024128328
113	0xbe3c91fb	-0.18415062
114	0xbd54d06a	-0.05195657
115	0x3c5dea50	0.013544634
116	0xbc041dae	-0.008063717
117	0x3c6f4f80	0.014606357
118	0xbd16355d	-0.036671985
119	0xbc2a4fe3	-0.010395023
120	0xbde7e4da	-0.11322947
121	0x3e01b1bf	0.12665461
122	0x3def2003	0.116760276
123	0xbd69c879	-0.05707595
124	0x3d429859	0.04750857
125	0x3dc34f93	0.09536662
126	0xbd9d61ba	-0.076846555
127	0xbcaaa990	-0.020832807
128	0xbcf206af	-0.029544203
129	0xbcb321f2	-0.021866772
130	0xbd0c8f79	-0.034316514
131	0x3da178c2	0.07884361
132	0x3cc38490	0.023866922
133	0xbbc58662	-0.0060279826
134	0x3d799412	0.060932226
135	0xbdb0fb12	-0.08641638
136	0x3e18d403	0.14924626
137	0xbd02f04d	-0.03196745
138	0x3cb7eb54	0.02245108
139	0xbd1fbe5b	-0.038999896
140	0xbc59663a	-0.013269002
141	0x3dd4f78e	0.1039878
142	0x3d9f5897	0.07780569
143	0xbc8987f7	-0.016788466
144	0xbe0b1081	-0.13580514
145	0x3d3a876b	0.0455393
146	0x3db5b284	0.0887194
147	0x3d558669	0.052130137
148	0xbe1f60c2	-0.15564254
149	0xbd423985	-0.047418136
150	0x3dbdf907	0.09276014
151	0xbc3b93da	-0.011448825
152	0xbc595d86	-0.013266927
153	0xbd47e04e	-0.048797898
154	0x3d8c35dc	0.0684621
155	0xbca33af7	-0.019925578
156	0xbd28557f	-0.04109716
157	0xbbc929cf	-0.006139017
158	0xbdb66039	-0.08905072
159	0xbcc1aeb2	-0.023642872
160	0x3d99a602	0.075023666
161	0x3bf94134	0.00760665
162	0xbdd5d515	-0.10441033
163	0xbd9c9fcf	-0.076476686
164	0xbdb03ebb	-0.08605715
165	0xbd613559	-0.054982517
166	0x3cbd0e81	0.023078205
167	0xbdf578ee	-0.11985956
168	0xbd0dec51	-0.034649197
169	0xbdc1a0ca	-0.09454496
170	0xbd847d91	-0.064692624
171	0x3d5cb65f	0.05388486
172	0xbdffe78f	-0.12495338
173	0xbd888edb	-0.066678725
174	0xbd7f594e	-0.062341027
175	0xbdcd25cc	-0.10016975
176	0x3cb189c2	0.021672133
177	0xbe0bbc31	-0.13646008
178	0xbd25b325	-0.04045405
179	0x3d8d5891	0.06901658
180	0xbd941c54	-0.07231966
181	0x3d67a979	0.056558106
182	0xbdad39a3	-0.08458259
183	0x3bfd61c3	0.0077326014
184	0x3e1f0c4d	0.15532036
185	0x3c15b919	0.009138369
186	0x3d49bcee	0.049252443
187	0xbd525a91	-0.051355902
188	0xbc7215e4	-0.014775727
189	0x3e2d8945	0.16946895
190	0xbc46b0b0	-0.0121270865
191	0xb8d6bf20	-0.00010239915
192	0x3aa12a43	0.001229592
193	0x3d9ef0a7	0.077607445
194	0x3dd46e1b	0.103725635
195	0xbc39768a	-0.011319766
196	0x3d98c3af	0.07459199
197	0xbcbf2194	-0.023331441
198	0x3e44fead	0.19237776
199	0x3cc07461	0.023492994
200	0x3d8254ce	0.063638315
201	0xbe0c4a33	-0.1370018
202	0xbde85f84	-0.11346343
203	0x3c8247a3	0.0159033
204	0x3d7cc8e8	0.061715037
205	0xbe028001	-0.12744142
206	0xbaf630fd	-0.001878291
207	0x3cdc365c	0.02688139
208	0x3d89241a	0.06696339
209	0x3e1e6ac3	0.15470414
210	0x3cc57ee3	0.024108356
211	0x3ccf814b	0.025330206
212	0x3d753216	0.05986222
213	0x3df5f729	0.12010033
214	0x3dedd1d3	0.116122864
215	0xbd61a0d7	-0.05508503
216	0xbda03bbe	-0.07823895
217	0xbdf1a1a6	-0.1179841
218	0x3db85c16	0.09001939
219	0x3e09b92c	0.13449544
220	0xbde6bd01	-0.112665184
221	0xbd897b84	-0.06713012
222	0x3d30d4e0	0.043171763
223	0x3dfe14a7	0.12406283
224	0x3db52300	0.08844566
225	0xbdaaccf1	-0.08339871
226	0xbc28707f	-0.010280727
227	0xbd8e5ce6	-0.06951313
228	0xbdec7f43	-0.11547711
229	0xbc9fc663	-0.019503778
230	0xbd65cbc2	-0.05610252
231	0xbdcf9e53	-0.1013762
232	0xbe15a7d3	-0.14614801
233	0xbd2e5ea8	-0.04257074
234	0xbd9f3aba	-0.07774873
235	0xbd525aff	-0.051356312
236	0xbd981d5a	-0.07427473
237	0x3d700c2b	0.058605354
238	0xbd14d601	-0.036336903
239	0xbcfb194c	-0.03065171
240	0xbdfb20e2	-0.12262131
241	0xbde39069	-0.111115284
242	0xbbcbf215	-0.006223927
243	0x3c920443	0.017824298
244	0xbd8f21e3	-0.06988885
245	0xbdfd409d	-0.1236584
246	0xbddfc5f2	-0.10926427
247	0xbd68858d	-0.05676799
248	0xbd953cd0	-0.0728699
249	0xbd0a87dd	-0.033820976
250	0x38c26a5a	9.2704504e-05
251	0x3c8ada8c	0.016949914
252	0x3c344c0d	0.01100446
253	0x3cc133db	0.023584297
254	0x3d68a968	0.056802183
255	0x3dc01702	0.093793884

conv1.bias f4 [6]
0	0x3c169939	0.009191805
1	0x3ada2819	0.001664403
2	0x3d36620e	0.044527106
3	0x3d528bab	0.05140273
4	0x3dd64972	0.10463227
5	0xbd995a46	-0.074879214

conv2.weight f4 [12, 6, 5, 5]
0	0xbc68a3ee	-0.01419924
1	0x3ce223fd	0.027605051
2	0xbd689a68	-0.05678788
3	0xbdb32e0d	-0.08749018
4	0x3a79b081	0.00095248973
5	0xbd15e9e9	-0.036600027
6	0x3d3ac90d	0.045601893
7	0xbc8378bb	-0.01604878
8	0x3d722bf0	0.059123933
9	0xbd62c50a	-0.055363692
10	0x3c107055	0.008815845
11	0xbd7fbb94	-0.062434748
12	0xbd975bb9	-0.073905416
13	0xbc819704	-0.01581908
14	0x3d8bd1d7	0.06827133
15	0xbd362d44	-0.044476762
16	0x3d18f072	0.03733868
17	0x3c1f5f3b	0.009727295
18	0xbda09356	-0.07840602
19	0xbd52d414	-0.051471785
20	0xbd8b4027	-0.067993455
21	0xbdcd343c	-0.100197285
22	0x3b1189f2	0.0022207466
23	0xbd63c725	-0.05560984
24	0xbd87427a	-0.06604476
25	0xbd0cf671	-0.034414712
26	0x3cc7821c	0.024354033
27	0x3db0066f	0.08594977
28	0x3da3bc39	0.07994885
29	0x3e07db00	0.13267136
30	0x3c15b20f	0.009136691
31	0xbd388f17	-0.045058336
32	0x3b1bd5e8	0.002377862
33	0xbdbe4711	-0.092908986
34	0x3d103450	0.03520614
35	0xbd74dfee	-0.05978387
36	0xbd4eb56f	-0.050465997
37	0x3cd626dd	0.026141578
38	0x3cef5cb2	0.029219005
39	0xbdb58ce7	-0.088647656
40	0xbdd91636	-0.105999395
41	0xbd640764	-0.05567111
42	0x3dd8fdd4	0.10595289
43	0x3c099806	0.008398062
44	0xbdf44ee2	-0.11929108
45	0xbdba3ca5	-0.09093598
46	0x3d19ebcd	0.037578393
47	0x3cb807d3	0.022464668
48	0xbc22bbd0	-0.009932473
49	0xbdb9eccf	-0.09078371
50	0xbd4504ad	-0.048100162
51	0xbd286496	-0.04111155
52	0xbd484314	-0.048892096
53	0x3c5e9441	0.013585151
54	0x3cda0f26	0.026618551
55	0x3d338154	0.04382451
56	0xbd98d7ef	-0.07463061
57	0xbd9d815b	-0.07690688
58	0xbd92f528	-0.07175666
59	0xbdc80684	-0.09766868
60	0x3c290a62	0.010317417
61	0x3d353c49	0.044246946
62	0xbd6f675d	-0.058448184
63	0xbdb2c100	-0.08728218
64	0xbdec9fa6	-0.11553888
65	0xbd20b0ed	-0.03923123
66	0xbce65467	-0.028116418
67	0x3d2144c1	0.03937221
68	0xbd9657ac	-0.07340941
69	0xbde1a279	-0.11017317
70	0xbc868b52	-0.016423855
71	0x3dc6f206	0.09714131
72	0x3d8d3428	0.06894714
73	0xbc9fa17f	-0.019486187
74	0xbc923b87	-0.01785065
75	0x3dcecacd	0.10097275
76	0x3d320110	0.043458045
77	0x3d963166	0.07333641
78	0xbd99d441	-0.07511187
79	0x3dbe1a18	0.09282321
80	0x3d80d8d1	0.062913544
81	0xbcc92f18	-0.024558589
82	0x3cf9349e	0.030420598
83	0xbba67c72	-0.005080753
84	0x3ca110c9	0.019661324
85	0x3c0ae7c7	0.008478112
86	0xbcad9767	-0.021190358
87	0x3d1fb1e3	0.038988005
88	0xbda86526	-0.082224175
89	0xbd514bd8	-0.05109772
90	0x39a95554	0.00032297766
91	0xbc88ccdd	-0.016699249
92	0x3d275958	0.04085669
93	0xbd991abb	-0.074758016
94	0xbd8c776e	-0.06858717
95	0xbceed288	-0.029153123
96	0x3d0e1eb0	0.034697235
97	0x3d88570a	0.066572264
98	0x3d57cf6c	0.052688047
99	0xbda5ca75	-0.08095256
100	0x3d1ab82b	0.037773293
101	0x3d80cc82	0.06289007
102	0x3d1dbb4f	0.03850871
103	0x3d1df6bc	0.038565382
104	0x3df43533	0.119242094
105	0xbd8485eb	-0.06470855
106	0x3d503eb8	0.050841063
107	0xbda519c6	-0.080615565
108	0xbe2692d4	-0.16266948
109	0x3d435c0b	0.0476952
110	0xbe103fb1	-0.14086796
111	0xbc4de4ef	-0.012566789
112	0xbde8b637	-0.1136288
113	0xbd77d927	-0.060509827
114	0xbd9c9445	-0.07645468
115	0xbd64676a	-0.055762686
116	0xbd3a4ac7	-0.04548147
117	0xbc881205	-0.016610155
118	0xbd8497ec	-0.06474289
119	0x3bcb5185	0.0062047862
120	0x3b63c8fb	0.0034757245
121	0x3ca4c29a	0.020112325
122	0x3dc3f1a1	0.095675714
123	0x3deae898	0.11470145
124	0x3d08f0c8	0.033432752
125	0xbd845f75	-0.064635195
126	0xbd9b277a	-0.07575889
127	0x3cdc4bca	0.026891608
128	0xbd976ec7	-0.07394176
129	0x3c535b94	0.012900252
130	0x3d3e1822	0.046409734
131	0x3dc94ec6	0.09829478
132	0x3d98936b	0.07449993
133	0xbd57721c	-0.052599058
134	0xbca321dd	-0.019913608
135	0xbc8e6b60	-0.017385185
136	0x3dabda7e	0.083912835
137	0x3e224a1e	0.15848586
138	0x3e379b08	0.17930233
139	0x3e0075f4	0.12544996
140	0x3d7700bb	0.06030343
141	0x3d252f10	0.040328085
142	0x3da64372	0.08118333
143	0x3e11e44e	0.14247248
144	0x3db673ed	0.0890883
145	0x3cb25e74	0.021773554
146	0xbc613246	-0.013744896
147	0x3ddb9dc6	0.10723452
148	0xbaddb87e	-0.0016915945
149	0x3dd2b88e	0.10289107
150	0xbd038ee9	-0.03211871
151	0x3d9b27fe	0.07575987
152	0xbd44a7f0	-0.04801172
153	0xbd076d88	-0.03306344
154	0x3db40307	0.0878964
155	0xbadd6c91	-0.0016893317
156	0x3ddbd489	0.10733897
157	0x3d52090c	0.05127816
158	0xbae4f82f	-0.0017468984
159	0x3c8e787e	0.01739144
160	0xbd36a398	-0.04458961
161	0x3cceb33f	0.025231956
162	0xbc0a7d9b	-0.008452798
163	0xbd8372f0	-0.06418407
164	0xbd3656aa	-0.044516243
165	0xbda64ec4	-0.08120492
166	0xbc184b3c	-0.009295281
167	0xbd64c380	-0.055850506
168	0xbe095354	-0.13410693
169	0xbdb4668d	-0.088086225
170	0xbd7953d8	-0.060870975
171	0xbd798bd7	-0.060924377
172	0xbce3c25b	-0.027802637
173	0xbdc8ee79	-0.0981111
174	0xbdbbe443	-0.09174397
175	0x3cd8d9a3	0.026470965
176	0xbd8699a4	-0.065722734
177	0xbd8600f1	-0.06543148
178	0xbcf458bb	-0.029827466
179	0x3d3d952b	0.046284836
180	0xbd20b242	-0.0392325
181	0x3d5da600	0.054113388
182	0xbce96fee	-0.028495755
183	0x3bff787f	0.0077963467
184	0x3d05ba0a	0.032648124
185	0xbd67b6c2	-0.056570776
186	0x3d656527	0.05600467
187	0x3d472e99	0.048628423
188	0x3d4d8061	0.05017126
189	0x3e02bb0a	0.12766662
190	0x3d460e67	0.04835358
191	0x3cddd427	0.027078701
192	0x3d253d6c	0.04034178
193	0x3c8034a3	0.0156501
194	0xbc9737d6	-0.018459242
195	0x3d8f2995	0.06990353
196	0xbdcc8ebf	-0.09988164
197	0x3a621a30	0.0008625118
198	0xbd247e56	-0.040159546
199	0x3a2010f4	0.0006106042
200	0x3dc4b657	0.09605091
201	0x3cf8b9a3	0.030361956
202	0x3cdedd36	0.027205091
203	0xbdbb0b0a	-0.09132965
204	0x3d4faaed	0.050700117
205	0x3dd1f348	0.1025148
206	0x3d2a5b44	0.041590944
207	0xbde06d3d	-0.109583355
208	0x3d584f57	0.05281004
209	0xbcc5c000	-0.024139404
210	0x3dbb8f5b	0.09158202
211	0x3d9c81c0	0.07641935
212	0xbdf590ef	-0.119905345
213	0x3da2c33e	0.07947396
214	0xbd8a3f23	-0.067503236
215	0xbc8a7c27	-0.016904904
216	0x3d7b33ff	0.061328884
217	0xbb0bb451	-0.0021317194
218	0x3dd35176	0.10318272
219	0xbd44aa8d	-0.048014212
220	0xbc69ab19	-0.014261984
221	0xbddb2d1e	-0.10701965
222	0x3d6f4411	0.058414523
223	0x3c521279	0.012821787
224	0x3da5bc2a	0.0809253
225	0x3d948df6	0.072536394
226	0x3df719c5	0.12065462
227	0x3d316a70	0.043314397
228	0xbc90e101	-0.017685415
229	0xbd083b23	-0.033259522
230	0xbc1bfea9	-0.009521165
231	0x3d8c5415	0.06851975
232	0x3d0376fc	0.032095894
233	0xbd1bb534	-0.038014606
234	0x3c703b9c	0.0146626495
235	0xbe1c7781	-0.15279962
236	0xbd2315f5	-0.03981586
237	0x3d2eaceb	0.042645376
238	0xbce4d677	-0.027934296
239	0x38e135e6	0.000107388754
240	0xbe28306f	-0.16424726
241	0x3d5f8d36	0.05457803
242	0xbd9664b6	-0.07343428
243	0xbdc14c0a	-0.094383314
244	0xbd2f83a7	-0.042850163
245	0xbe5d6430	-0.2162025
246	0xbdde35ec	-0.108501285
247	0xbd14677c	-0.036231503
248	0x3d429736	0.047507487
249	0xbdadc5b3	-0.08484974
250	0x3cdcff4b	0.026977202
251	0x3c8702a8	0.016480759
252	0xbc2f0638	-0.010682635
253	0xbc7a0a4e	-0.015261246
254	0xbde7fff8	-0.11328119
255	0xbd883f1f	-0.066526644

conv2.bias f4 [12]
0	0xbce7c370	-0.028291434
1	0xbdb7db08	-0.08977324
2	0x3dd266a9	0.10273487
3	0xbdc838d2	-0.097764626
4	0xbd2992b2	-0.041399665
5	0x3deac49b	0.11463281
6	0xbcb6fe9e	-0.022338208
7	0xbe2ec8ef	-0.17068838
8	0x3dd44427	0.103645615
9	0xbe10a438	-0.14125144
10	0x3e1d3cfb	0.15355293
11	0x3de0ad3f	0.10970544

conv3.weight f4 [24, 12, 5, 5]
0	0x3d28e131	0.041230384
1	0x3d5dedc0	0.054181814
2	0x3c5354cf	0.012898638
3	0xbd55c2f0	-0.05218786
4	0x3d426059	0.047455166
5	0x3d5bdf8f	0.05368
6	0xbcad71a8	-0.02117236
7	0x3ca04321	0.01956326
8	0xbaaf99a5	-0.001339723
9	0x3d0fb033	0.035080146
10	0x3d544e4a	0.051832475
11	0x3b3d3a1d	0.002887375
12	0xbd3c6d62	-0.046002753
13	0x3d545246	0.051836275
14	0x3ce2b00f	0.027671842
15	0xbd640d52	-0.055676766
16	0x3d2be9b3	0.04197092
17	0x3d5d59d8	0.05404076
18	0x3c48cd21	0.012255938
19	0x3d0ca09a	0.03433285
20	0x3cb4ecaf	0.022085516
21	0xbcc25108	-0.02372028
22	0xbd59715f	-0.053086635
23	0x3cbc2855	0.02296845
24	0x3d6739ca	0.056451596
25	0x3c385fea	0.011253336
26	0xbceb901b	-0.028755238
27	0x3cdf7381	0.027276756
28	0xbcb466d7	-0.022021694
29	0xbccd2f27	-0.025046898
30	0x3cf4232d	0.02980193
31	0xbcff3fd3	-0.031158363
32	0x3bd70f41	0.0065630977
33	0xbc802546	-0.015642773
34	0xbd0192a6	-0.031633995
35	0xbc3af4d6	-0.0114109125
36	0x3d42e38b	0.047580283
37	0xb8d4133f	-0.000101125326
38	0xbd198b48	-0.037486345
39	0xbc32e59e	-0.010919003
40	0xbc35989e	-0.01108375
41	0xbcb84923	-0.022495812
42	0x3d137f13	0.03600986
43	0x3be0c030	0.006858848
44	0xbd2302d5	-0.039797623
45	0x3c381ff1	0.011238084
46	0x3d63c012	0.055603094
47	0xbd1e7d87	-0.03869393
48	0x3d25e6de	0.040503375
49	0x3d3fdb3b	0.046839934
50	0x3d652a9e	0.055948846
51	0xbca71764	-0.020396896
52	0xbc10e0f4	-0.0088426955
53	0xbce538f1	-0.027981253
54	0xbd31d95d	-0.043420184
55	0xba46c6ba	-0.0007582713
56	0xbccc8730	-0.024966806
57	0xbc22f463	-0.009945962
58	0xbd18f853	-0.037346195
59	0xbd21b47f	-0.039478775
60	0x3bfa821b	0.0076449043
61	0xbca65bf4	-0.020307519
62	0x3d60fa68	0.054926306
63	0x3d57e1b8	0.052705497
64	0xbd6b1581	-0.057393555
65	0xbcc0f32c	-0.023553453
66	0x3b2272c5	0.0024787646
67	0x3c15724a	0.009121487
68	0xbd37ec58	-0.04490313
69	0xbd080008	-0.033203155
70	0x3c653741	0.013990224
71	0xbc13a341	-0.009011091
72	0x3d38f149	0.045151982
73	0x3d1a2f37	0.037642684
74	0x3ca33bfe	0.019926067
75	0x3d0f58c8	0.034996778
76	0x3b95fdb8	0.004577365
77	0x3c3e3aeb	0.011610727
78	0xbd2082dd	-0.0391873
79	0xbd087bac	-0.033321068
80	0x3c95248c	0.018205903
81	0xbd162210	-0.03665358
82	0xbd5a2968	-0.053262144
83	0x3d491a17	0.049097147
84	0xbc91ebb4	-0.017812587
85	0xbd006a51	-0.03135139
86	0xbbe98089	-0.0071259183
87	0xbd2c40ec	-0.0420541
88	0xbc57d7f8	-0.01317405
89	0x3c7974af	0.015225573
90	0xbd68638b	-0.056735557
91	0x3cb07043	0.021537906
92	0x3cbc4f9b	0.022987178
93	0xbd645867	-0.05574837
94	0x3d413259	0.047167156
95	0x3cbc4181	0.022980453
96	0x3b828274	0.0039828364
97	0x3d0411b0	0.03224343
98	0xbcf6f90d	-0.030148054
99	0xbc8d7c80	-0.01727128
100	0xbcd99725	-0.02656133
101	0x3ceff7a4	0.029292889
102	0x3d505a35	0.050867278
103	0xbc968b8f	-0.018377094
104	0x3d4f8c11	0.050670687
105	0x3cfa6b63	0.030568784
106	0x3d09f19f	0.033677693
107	0x3c4a6e53	0.012355405
108	0xbd457daf	-0.048215564
109	0xbd45ed02	-0.04832173
110	0x3d42d926	0.04757037
111	0x3c784fae	0.015155716
112	0x3d2d53f9	0.04231641
113	0x3d012ba6	0.031535767
114	0x3c559a0e	0.013037218
115	0xbcf5cd08	-0.030004993
116	0x3bef3972	0.007300549
117	0x3b0be261	0.002134465
118	0x3c14803c	0.009063777
119	0x3ce5c13d	0.028046245
120	0x3d6201a0	0.05517733
121	0x3bd33001	0.0064449315
122	0x3c043fad	0.008071822
123	0x3d1a9416	0.037738882
124	0x3c9eb76a	0.019374568
125	0x3cc2ebe8	0.02379413
126	0x3b92f373	0.004484588
127	0x3d0c8040	0.034301996
128	0x3d2582f7	0.0404081
129	0x3d39a60a	0.045324363
130	0x3c832685	0.016009578
131	0x3d3ccf92	0.046096392
132	0xbd342bef	-0.04398721
133	0xbd6c4575	-0.057683427
134	0x3bfaa33e	0.0076488545
135	0x3d6bb950	0.057549775
136	0xbcb4a282	-0.022050146
137	0x3c0fb3a9	0.008770862
138	0xbcec7eaa	-0.028868992
139	0xbcc4f089	-0.024040477
140	0x3d107792	0.03527028
141	0xbd42a2a2	-0.04751838
142	0x3c8c036f	0.017091481
143	0xbb8450e9	-0.0040379656
144	0x3d161822	0.03664411
145	0xbd5102be	-0.051028006
146	0x3d1d7b67	0.038447764
147	0xbce9ed83	-0.028555637
148	0xbd4887e8	-0.048957735
149	0xbd2f728f	-0.04283386
150	0xbd638714	-0.055548742
151	0x3d52a81a	0.051429845
152	0x3c3db47b	0.011578674
153	0x3c23425b	0.009964551
154	0xbd18be9b	-0.03729115
155	0xbd1b2263	-0.03787459
156	0xbbc79d8f	-0.0060917805
157	0x3be201d4	0.0068971906
158	0x3d58459e	0.052800767
159	0x3c0d126a	0.008610347
160	0x3d49ea80	0.049295902
161	0x3b666b88	0.0035159308
162	0x3d49f88d	0.049309302
163	0x3c30a745	0.010782068
164	0xbcb40b4d	-0.021978045
165	0x3cff6fee	0.031181302
166	0xbd580ff6	-0.052749597
167	0x3d00f3ab	0.03148238
168	0xbd640362	-0.05566729
169	0x3c62e099	0.013847494
170	0x3d20b86f	0.03923839
171	0xbd264694	-0.040594652
172	0xbaade653	-0.0013267495
173	0xbcf08487	-0.029360069
174	0xbd4e9073	-0.050430726
175	0x3ccac495	0.02475194
176	0x3bdeb024	0.0067959
177	0xbd54cd56	-0.051953636
178	0xbbe4b483	-0.0069795265
179	0x3d30e8fa	0.043190934
180	0xbc30527c	-0.010761853
181	0xbc4ddeba	-0.012565309
182	0xbd499163	-0.049210917
183	0xbca10354	-0.019654907
184	0xbc3deb4d	-0.011591745
185	0xbbd8b064	-0.0066128243
186	0x3cf659d5	0.030072132
187	0x3d3de097	0.046356764
188	0x3d0a0e0e	0.03370481
189	0x3d228a23	0.03968252
190	0x3d0f3c95	0.034969885
191	0xbcf8c704	-0.030368336
192	0xbd2f6387	-0.042819526
193	0xbbf0c9d7	-0.00734828
194	0x3cce6f0c	0.025199436
195	0xbc37b9c1	-0.011213721
196	0x3cb73450	0.022363812
197	0x3d04a610	0.032384932
198	0xbcf36906	-0.029713165
199	0xbd363aac	-0.044489548
200	0xbc5cf602	-0.013486387
201	0xbd45875c	-0.048224792
202	0xbd402c55	-0.04691728
203	0xbd10132f	-0.035174545
204	0xbc23b3f3	-0.009991634
205	0x3c2b3cb4	0.0104514845
206	0x3d3da948	0.046304017
207	0xbd6b77ce	-0.0574873
208	0xbbcdfcb1	-0.0062862267
209	0xbbb5e12a	-0.0055505233
210	0xbabadc3d	-0.001425631
211	0xbcb683d8	-0.022279665
212	0xbcfca0f1	-0.030838462
213	0x3cd25263	0.02567405
214	0x3b7a2493	0.0038168773
215	0x3bf36446	0.007427725
216	0x3d5b99da	0.05361352
217	0x3d1fab90	0.038981974
218	0xbd44d85f	-0.04805791
219	0xbc9e4035	-0.019317726
220	0x3ce760fa	0.028244484
221	0x3cbc47ed	0.022983516
222	0xbcc0c4e2	-0.023531381
223	0x3d3c3ada	0.045954563
224	0x3cc6ffa4	0.02429182
225	0xbcaa476e	-0.020786013
226	0xbc90f285	-0.017693767
227	0xbd1797c8	-0.037009984
228	0x3d567a0c	0.052362487
229	0xbd63b709	-0.055594478
230	0x3c2a3f4e	0.01039107
231	0x3c39c11c	0.011337545
232	0xbd108cf8	-0.03529069
233	0x3bf1339c	0.0073608886
234	0xbd44ec6f	-0.048077043
235	0x3cf99718	0.030467555
236	0x3d1e445d	0.038639415
237	0xbd6a7239	-0.057237837
238	0xbd13c72c	-0.036078617
239	0x3c608b12	0.013705032
240	0xbd4c360b	-0.049856227
241	0xbd12e879	-0.035866234
242	0xbcefd0d4	-0.029274382
243	0x3cac828f	0.021058349
244	0xbc21c720	-0.009874135
245	0xbd36dae1	-0.044642333
246	0x3d05e57b	0.032689553
247	0xbd336bbe	-0.043803923
248	0x3acbbbbe	0.0015543622
249	0xbd1b6cb1	-0.037945453
250	0x3c051e12	0.008124845
251	0x3d021b40	0.03176427
252	0x3b5c5e0c	0.0033625392
253	0x3d2b5630	0.04183024
254	0xbd4709de	-0.048593394
255	0x3d4a541d	0.049396623

conv3.bias f4 [24]
0	0x3c86a863	0.016437715
1	0xbce89f75	-0.028396348
2	0x3cbbe915	0.02293829
3	0xbc5b28ca	-0.013376424
4	0x3d3cc197	0.04608306
5	0x3c4580df	0.012054651
6	0xbcc4ba3c	-0.024014585
7	0xbac23840	-0.0014817789
8	0xbd389027	-0.04505935
9	0xbd447f5a	-0.047973014
10	0xbd57b0fc	-0.05265902
11	0xbbaa8e93	-0.0052049845
12	0x3c8561c7	0.016281975
13	0x3d3abb95	0.04558905
14	0xbc97c9b9	-0.018528806
15	0xbcd96c0f	-0.026540784
16	0x3d486bd7	0.04893097
17	0xbd52eb66	-0.051494025
18	0x3cbe5eaf	0.023238508
19	0x3ce3d433	0.027811145
20	0xbcad7526	-0.021174025
21	0xbc7d2e86	-0.015452987
22	0x3d2de706	0.04245665
23	0x3d366f13	0.044539522

conv4.weight f4 [48, 24, 5, 5]
0	0x3c827dce	0.015929129
1	0x3bd714db	0.0065637655
2	0xbbd53625	-0.0065066987
3	0xbc1506de	-0.009095876
4	0xbacde544	-0.0015708585
5	0xbcf62ff7	-0.030052168
6	0x3b900726	0.0043953834
7	0xbc23d5d7	-0.009999714
8	0xbcb042b2	-0.021516178
9	0x3d225a9d	0.039637197
10	0x3d01e7c9	0.03171519
11	0x3d1184d0	0.03552705
12	0xbb144f95	-0.0022630442
13	0xbd1b355e	-0.03789269
14	0x3caf0248	0.021363392
15	0x3bf1540e	0.0073647564
16	0x3be28efb	0.0069140173
17	0xbb82d80a	-0.003993039
18	0xbb90e6b5	-0.0044220337
19	0xbc2225a6	-0.009896671
20	0xbc079fb4	-0.008277822
21	0x3b89be29	0.004203577
22	0x3b3671e4	0.002783888
23	0x3afdf537	0.0019375448
24	0xbc61ecd3	-0.013789373
25	0xbc5b5745	-0.013387506
26	0x3d08c787	0.03339341
27	0x3cd0ced7	0.025489254
28	0x3cfea829	0.031086044
29	0x3c9c894c	0.019108437
30	0x3d123174	0.035691693
31	0x3c1637af	0.009168549
32	0xbc866118	-0.01640372
33	0x3b493e68	0.0030707363
34	0x3d1c0cb4	0.038098052
35	0xbaecacc9	-0.0018056865
36	0xbcb16f0b	-0.021659395
37	0x3c7d8f03	0.015475991
38	0x3caff6bb	0.021479955
39	0x3cb5a347	0.022172583
40	0x3bf7779b	0.0075521
41	0xbcdd82cd	-0.02703991
42	0x3bf71b4d	0.0075410963
43	0xbc42da69	-0.011892893
44	0xbbe73aa8	-0.007056553
45	0x3d1b6ae2	0.03794373
46	0xbb9d4405	-0.0047993683
47	0x3c69fd21	0.014281542
48	0xbc614c04	-0.013751034
49	0xbd1321c8	-0.03592089
50	0x3c92fd79	0.01794313
51	0xbc789c13	-0.01517393
52	0xbc34b069	-0.011028388
53	0xbd08143f	-0.033222433
54	0xbc1512ba	-0.009098703
55	0xb9606c9f	-0.00021402769
56	0xbc772bcb	-0.015086125
57	0x3cfc567f	0.030802963
58	0xbca65f5a	-0.020309139
59	0x3a83beb3	0.001005134
60	0x3bc6fc0a	0.006072526
61	0x3c28f66b	0.010312657
62	0x3bcca0e9	0.006244768
63	0x3ccc9e81	0.024977924
64	0x3ce68ece	0.028144266
65	0x3cc07d9f	0.0234974
66	0xbb9a63fd	-0.0047116266
67	0xbc90c1e7	-0.017670585
68	0x3bad68cc	0.005292034
69	0xbd01c4fa	-0.031681992
70	0xbc292710	-0.010324255
71	0xbcccc6ba	-0.024997104
72	0x3be2c2fe	0.0069202175
73	0x3c7146f8	0.014726393
74	0xbd052082	-0.032501705
75	0xbb017e94	-0.0019759284
76	0xbc97e827	-0.018543316
77	0x3c0b84aa	0.008515516
78	0xbbe9d588	-0.0071360506
79	0x3b7dca30	0.003872525
80	0x3ca19a26	0.019726824
81	0xbbe86dc8	-0.007093165
82	0x3cc0d317	0.023538155
83	0xbaa21f81	-0.0012369008
84	0xbc97c251	-0.018525274
85	0xbca16311	-0.019700559
86	0x3cb95128	0.022621706
87	0x3ccb9592	0.024851594
88	0x3ce257de	0.027629789
89	0xbc93cdcd	-0.01804247
90	0xbd21318f	-0.039353903
91	0x3d15360e	0.036428504
92	0xbc959dc1	-0.0182637
93	0xbd1fe3d4	-0.039035633
94	0xbc919f5b	-0.017776182
95	0x3c820736	0.015872579
96	0x3a28eaa4	0.00064436556
97	0xbce56227	-0.028000904
98	0xbd0949b3	-0.03351755
99	0xb9ddf8e6	-0.0004233785
100	0x3d1422fa	0.03616617
101	0x3cdd18d7	0.026989384
102	0xbc9a21c5	-0.01881493
103	0xbd08c518	-0.03339109
104	0xbd06fb00	-0.032954216
105	0xbd0e710e	-0.034775786
106	0x3c4534ae	0.012036486
107	0xbcf0c64c	-0.02939143
108	0x3ccedeb2	0.025252674
109	0xbca055cc	-0.019572161
110	0xbb9eb64d	-0.0048435093
111	0xbd1d65b0	-0.038427055
112	0x3cea12d9	0.02857344
113	0xbbe2ac02	-0.0069174776
114	0xbd0bfc58	-0.0341762
115	0x3ca51a2f	0.020154087
116	0x3d05ee70	0.032698095
117	0x3ce87fbc	0.028381221
118	0x3d2667e4	0.04062642
119	0x3c17c490	0.009263173
120	0xbc998738	-0.018741235
121	0x3ccab428	0.024744108
122	0xbb2d4bc6	-0.002644287
123	0x3cb1fb49	0.021726267
124	0x3c64eddc	0.013972726
125	0x3c877256	0.016534012
126	0x3ccf8119	0.025330113
127	0xbcee7930	-0.029110521
128	0xbd176593	-0.036962103
129	0x3d14527c	0.036211476
130	0x3c1a3b4e	0.009413553
131	0xbb6e2ed3	-0.0036343827
132	0x3bac55f7	0.0052592712
133	0x3bb86338	0.005627062
134	0xbbbe9578	-0.005816158
135	0x3bc9cc5a	0.006158394
136	0x3c724288	0.01478637
137	0x3d15303b	0.03642295
138	0xbbf41138	-0.0074483417
139	0x3ca0c8fe	0.01962709
140	0x3c63d1f7	0.01390504
141	0x3d0ecced	0.0348634
142	0x3c6dd875	0.014516939
143	0x3a783f32	0.0009469866
144	0xbc6f43d2	-0.014603572
145	0x3beb6c5a	0.0071845474
146	0x3cbc5623	0.022990292
147	0xbc3608b0	-0.01111047
148	0xbd188f1d	-0.03724586
149	0xb8861199	-6.392896e-05
150	0xbbc27bd7	-0.005935173
151	0xbc454e8b	-0.012042652
152	0xbcafc77f	-0.021457432
153	0x3cdc00e8	0.0268559
154	0xbcc60b22	-0.02417523
155	0xbcf7d671	-0.03025362
156	0xbce53314	-0.027978458
157	0x3b83a5eb	0.0040175817
158	0x3c3c0236	0.0114751365
159	0x3d0324c0	0.03201747
160	0xb686b8d1	-4.0150267e-06
161	0xbcdecef4	-0.027198292
162	0xbce48ab0	-0.027898163
163	0x3cc2965b	0.023753336
164	0x3d16d593	0.036824774
165	0x3cbd5819	0.023113297
166	0x3c897b8e	0.016782548
167	0x3be75441	0.0070596044
168	0x3d03ca99	0.032175634
169	0xbd12cc5d	-0.035839427
170	0xbd1b0925	-0.037850518
171	0x3ce7fcdc	0.028318815
172	0x3c1f6237	0.009728006
173	0xbcd170c5	-0.025566468
174	0xbc4dcfe0	-0.012561768
175	0x3ca410dc	0.02002757
176	0xbca0be88	-0.019622102
177	0xbc8c9db6	-0.017165046
178	0x3d231a95	0.039820272
179	0x3cd1a49c	0.025591187
180	0xbc263a60	-0.010145754
181	0x3c87fb17	0.016599221
182	0x3bd320da	0.006443125
183	0xbcfc415a	-0.03079288
184	0x3cb599ee	0.022168126
185	0xbcaea1cb	-0.021317383
186	0xba528cdc	-0.0008031854
187	0xbcb4d6ee	-0.022075143
188	0x3c94d08a	0.018165845
189	0xbc073ace	-0.008253766
190	0xbc8a3a71	-0.01687357
191	0x3c963c9a	0.018339444
192	0x3a5adcfa	0.0008348968
193	0xbc4ca0ba	-0.012489492
194	0x3ca492af	0.020089475
195	0x3d06afad	0.03288238
196	0x3bd743a4	0.0065693427
197	0xbc0d6146	-0.008629149
198	0x3c8f28bf	0.017475484
199	0xbcbdabfb	-0.023153296
200	0xbcff4ef1	-0.031165572
201	0xbd13b578	-0.036061734
202	0xbcf82e56	-0.030295532
203	0x3c86abc3	0.016439324
204	0xbc82aca4	-0.015951462
205	0xbc1d3ca1	-0.009596975
206	0xbb8202da	-0.003967625
207	0x3c81244e	0.015764382
208	0x3cde239f	0.027116595
209	0x3cb45721	0.022014203
210	0x3cfa00ef	0.030518023
211	0xbd0b8c70	-0.03406948
212	0xbd0ad052	-0.033890076
213	0xbcd27834	-0.025692083
214	0x3aa9f4fb	0.0012966687
215	0x3c38074e	0.01123221
216	0x3d1ac2ce	0.037783436
217	0x3d1cce7f	0.038282868
218	0x3c912cb6	0.017721515
219	0xbafdd340	-0.0019365326
220	0x3c1acbd3	0.00944801
221	0x3c9a178e	0.01881006
222	0x3ba96ac0	0.0051701963
223	0x3cd1772c	0.02556952
224	0xbd052356	-0.032504402
225	0xbc925ae3	-0.017865604
226	0xbbc663e3	-0.006054388
227	0x3b58392a	0.0032993057
228	0xbc189e1e	-0.009315042
229	0x3d102276	0.035189115
230	0x3d0e923f	0.03480744
231	0xbc8de59e	-0.017321404
232	0xbc9bf995	-0.019039908
233	0x3cb6fc0b	0.02233698
234	0x3c8b7697	0.017024321
235	0x3bcf0e63	0.0063188537
236	0xb9de1d7a	-0.000423651
237	0x3c071f9d	0.008247283
238	0xbc7455d9	-0.014913046
239	0x3ce13508	0.027491108
240	0xbc3059c5	-0.01076359
241	0xbc4106be	-0.011781393
242	0xbc163bcf	-0.009169533
243	0xbb44d56f	-0.0030034443
244	0x3b8aa9ed	0.0042316825
245	0xbc71f75f	-0.0147684505
246	0x3beae7f5	0.0071687647
247	0x3bf7a41b	0.0075574047
248	0xbc817055	-0.015800634
249	0xbcdc6982	-0.026905779
250	0x3d1f5f09	0.038908992
251	0xbcfa93cd	-0.030588055
252	0x3cbf796a	0.023373324
253	0x3c9dcf87	0.019263996
254	0x3c4a4942	0.012346568
255	0x3ceeb11e	0.02913719

conv4.bias f4 [48]
0	0xbc6ab0e7	-0.014324403
1	0x3c4eb5e7	0.012616611
2	0x3cffacd7	0.031210346
3	0x3c8b61e4	0.017014451
4	0x3c41483a	0.011797005
5	0xbc4a3260	-0.012341112
6	0xbcbb26aa	-0.022845585
7	0x3ba277af	0.004958115
8	0xbb85ded0	-0.004085399
9	0xbca65d3d	-0.020308131
10	0xbb92e487	-0.004482809
11	0xbcfa3a3b	-0.030545345
12	0xbb63a062	-0.0034733047
13	0xbcd68ff6	-0.026191693
14	0xbb755459	-0.0037434308
15	0x38e88f03	0.0001108926
16	0xbc9eb323	-0.019372528
17	0xbc44145b	-0.011967744
18	0x3c0dcdaf	0.008654996
19	0x3c673e50	0.014113978
20	0xbb292abc	-0.0025812825
21	0xbbfaebbf	-0.0076574977
22	0xbc22c9c3	-0.009935799
23	0x3caac85d	0.020847494
24	0x3cc08b35	0.02350388
25	0xbb70fd04	-0.0036771903
26	0x3d126a2d	0.03574579
27	0x3a3b6667	0.0007148743
28	0xbb24f44e	-0.002517003
29	0xbc3243c0	-0.010880411
30	0xbc3caf6e	-0.011516435
31	0xbd0fa3ff	-0.03506851
32	0x3cc267e6	0.023731183
33	0x3d0a2e48	0.033735543
34	0x3b59e007	0.0033245103
35	0x3d0b18e2	0.033959277
36	0xbcbdd9c7	-0.023175133
37	0xbd0eb853	-0.034843754
38	0x3c78d806	0.015188223
39	0xbcab58ca	-0.020916361
40	0xbd138783	-0.036017906
41	0xbceaa0d7	-0.028641148
42	0x3cb62a90	0.022237092
43	0xbc8fd6ff	-0.017558573
44	0xbd001f84	-0.031280056
45	0xbba104b5	-0.004913891
46	0xbcd12a3a	-0.02553283
47	0xbcfa024d	-0.030518675

fc1.weight f4 [120, 300]
0	0xbd53fdff	-0.0517559
1	0xbe03a654	-0.12856418
2	0xbdc7aa4e	-0.0974928
3	0x3bc53a10	0.0060188845
4	0xbdcb8f79	-0.099394746
5	0xbd3d6859	-0.04624209
6	0xbc716a58	-0.014734827
7	0xbd871e2e	-0.06597553
8	0x3d4f5e30	0.050626934
9	0xbe0f8f3b	-0.14019482
10	0x3daba52c	0.083811134
11	0xbc0a0743	-0.008424583
12	0xbd0fcbce	-0.035106473
13	0xbdefe84e	-0.117142305
14	0xbda0daf7	-0.07854264
15	0x3dad3747	0.08457809
16	0x3daf9642	0.08573581
17	0x3dd7ee22	0.10543467
18	0xbd602ac4	-0.054728284
19	0xbd88eb10	-0.066854596
20	0x3e1b4292	0.15162113
21	0x3dcc9c4f	0.09990751
22	0x3d720d50	0.059094727
23	0xbc36b20c	-0.011150848
24	0xbd6f1ff8	-0.058380097
25	0xbd109749	-0.035300527
26	0xbdcd851a	-0.10035153
27	0x3c3207b4	0.010866094
28	0x3d19b770	0.037528455
29	0x3d85e3d0	0.065375924
30	0xbc8ca48a	-0.017168302
31	0x3d34a19d	0.04409944
32	0x3dcea4b9	0.10090012
33	0xbcb2d1c4	-0.02182854
34	0x3d858462	0.06519391
35	0xbc879aa8	-0.016553238
36	0x3d022650	0.03177482
37	0x3d28cb0d	0.04120927
38	0x3d9599ec	0.07304749
39	0xbca10f52	-0.019660626
40	0xbca97b4e	-0.02068868
41	0xbcd2970e	-0.025706794
42	0xbd08ee12	-0.033430167
43	0x3dd42362	0.10358311
44	0xbd6ad0ed	-0.057328153
45	0xbde949f7	-0.11391061
46	0xbd969029	-0.07351715
47	0xbc388c48	-0.011263914
48	0x3d21d44b	0.0395091
49	0xbd7dc03d	-0.06195091
50	0x3cfd86fa	0.03094815
51	0xbd083792	-0.03325612
52	0xb949a00c	-0.00019228476
53	0xbd216749	-0.03940514
54	0xbcab2851	-0.020893248
55	0xbd241c20	-0.040065885
56	0xbcbe5e16	-0.023238223
57	0x3c98d886	0.018657934
58	0xbc6fb264	-0.014629934
59	0x3d07a5d7	0.03311714
60	0xbc6e0f9a	-0.014530087
61	0xbd0209e5	-0.031747717
62	0x3d3ecb49	0.046580587
63	0xbd65c970	-0.05610031
64	0x3df3a499	0.11896629
65	0x3d00ca8e	0.03144317
66	0xbb9cad54	-0.0047814045
67	0xbd8d455a	-0.068979934
68	0x3c8b5752	0.017009411
69	0x3c2e373d	0.010633287
70	0xbc584762	-0.013200613
71	0x3c39b3ae	0.011334343
72	0xbbb2f2e2	-0.005461083
73	0x3d09735c	0.03355728
74	0x3df51cea	0.119684055
75	0xbdb80fa4	-0.08987358
76	0xbd957b97	-0.072989635
77	0xbe097d91	-0.13426806
78	0xbe09d9b1	-0.13461949
79	0xbe5a8839	-0.21341027
80	0xbdabcc93	-0.08388629
81	0xbd9bd8cd	-0.07609711
82	0xbdba0958	-0.090838134
83	0xbca0ce66	-0.019629668
84	0xbd871601	-0.06595994
85	0xbd4d6719	-0.05014715
86	0x3ce38440	0.027773023
87	0x3d5af71e	0.053458326
88	0x3d0c4653	0.034246754
89	0xbd369cef	-0.044583257
90	0x3c49ff21	0.012328894
91	0x3d5b3836	0.053520404
92	0x3dd1ea1a	0.102497295
93	0x3d3c3429	0.04594818
94	0xbc7777c1	-0.015104235
95	0x3d9ca45f	0.07648539
96	0x3dc21176	0.09475987
97	0x3d8ff1bb	0.07028528
98	0xbbd29005	-0.00642586
99	0xbc852fbd	-0.016258115
100	0xbd8ea1a1	-0.06964422
101	0xbbda5206	-0.00666261
102	0x3b0dd32d	0.0021640763
103	0xbd75e69a	-0.060034372
104	0xbc24a660	-0.0100494325
105	0xbb5df853	-0.0033869937
106	0x3d395545	0.045247335
107	0x3d9c79cd	0.07640419
108	0x3ce3bc38	0.02779971
109	0xbd896720	-0.06709123
110	0x3dc4d9e8	0.09611875
111	0x3dd948e3	0.10609605
112	0x3d47574d	0.04866724
113	0x3d0f2cd3	0.034954857
114	0x3d2adc85	0.04171421
115	0xbacbd9c1	-0.0015552567
116	0x3d1e31bb	0.038621645
117	0x3da32388	0.079657614
118	0x3d593d76	0.05303713
119	0x3d2980d9	0.041382644
120	0x3beb8739	0.0071877507
121	0xbd403c00	-0.04693222
122	0x3d83dd80	0.06438732
123	0x3d0feec3	0.03513981
124	0xbda2ee1c	-0.07955572
125	0x3d305688	0.043051273
126	0xbd70b247	-0.05876377
127	0x3dba199b	0.09086915
128	0x3dd74851	0.1051184
129	0x3db567af	0.08857667
130	0x3cea9712	0.028636489
131	0x3d63e1ef	0.05563539
132	0xbc2511fd	-0.0100750895
133	0x3c84b608	0.01620008
134	0xbd227d6e	-0.0396704
135	0x3d8881a6	0.066653535
136	0xbd135910	-0.03597361
137	0x3d97293c	0.07380912
138	0xbd0edb1d	-0.03487693
139	0x3c45b442	0.012066903
140	0x3dd68170	0.10473907
141	0x3d1f0435	0.03882237
142	0xbc342c02	-0.01099682
143	0xbc993194	-0.018700399
144	0xbdfdbeea	-0.123899296
145	0x3e24e847	0.16104232
146	0x3d9b8fc2	0.07595779
147	0xbcae47f8	-0.021274552
148	0xbd5eda71	-0.05440754
149	0xbd5009b5	-0.050790507
150	0xbcd10831	-0.025516601
151	0xbd93cd24	-0.07216862
152	0xbcba8168	-0.022766784
153	0xbddc73a9	-0.10764248
154	0xbe27e802	-0.16397098
155	0xbd4cc4b0	-0.049992263
156	0xbe077f0b	-0.13232057
157	0xbd9e0e57	-0.07717579
158	0x3c9eff6d	0.019408906
159	0xbc25b0ee	-0.010112984
160	0xbdbab799	-0.0911705
161	0xbdb78f2c	-0.08962855
162	0xbdb86c1c	-0.09004995
163	0xbdd6b910	-0.104845166
164	0xbe0c19fe	-0.1368179
165	0x3d804b27	0.06264334
166	0x3c8f488f	0.017490653
167	0x3cd1e764	0.025623031
168	0x3ce3cbd5	0.027807156
169	0xbc5d50b0	-0.013508007
170	0x3daa7ba9	0.083243676
171	0x3c82b376	0.015954714
172	0x3dbd7eb9	0.09252686
173	0x3c95af22	0.018271986
174	0x3c791673	0.015203106
175	0x3d068d93	0.03284986
176	0xbdc60788	-0.09669405
177	0x3ca9bbb5	0.020719388
178	0x39a9b429	0.00032368422
179	0x3d9c5eed	0.07635293
180	0x3c3b93b6	0.011448791
181	0x3d8f5b20	0.069998026
182	0xbd4e30fd	-0.050339688
183	0x3dbd19e1	0.09233452
184	0x3d521fd1	0.051299874
185	0xbd7c2d16	-0.061566435
186	0x3cdc00ac	0.02685579
187	0x3d11bd48	0.035580903
188	0x3d14b687	0.036306884
189	0x3d89b228	0.06723434
190	0xbd20232f	-0.039096054
191	0x3d9d04a5	0.076669015
192	0x3d8241cd	0.06360207
193	0x3db3940f	0.08768474
194	0xbda42d96	-0.08016507
195	0xbc2462c7	-0.010033316
196	0x3d51530f	0.0511046
197	0xbc17d4d3	-0.00926705
198	0x3c756f9e	0.014980225
199	0xbd4dbe55	-0.050230343
200	0x3cfaddac	0.03062328
201	0xbdce58ef	-0.100755565
202	0x3dadf384	0.084937125
203	0x3ca530d6	0.020164888
204	0xbb0bf64a	-0.0021356517
205	0x3ae98677	0.0017816563
206	0xbc823fbe	-0.015899535
207	0x3df06ed7	0.11739891
208	0x3e0387ca	0.12844768
209	0x3b561517	0.003266638
210	0xbdf89db2	-0.12139453
211	0x3d4af518	0.049550146
212	0x3d88f0d2	0.06686558
213	0xbcfc1bde	-0.030775007
214	0xbdabdc73	-0.08391657
215	0xbd8fbab5	-0.070180334
216	0xbd08cb57	-0.033397045
217	0xbd53503d	-0.051590193
218	0x3d896437	0.067085676
219	0x3d92e8c3	0.07173302
220	0xbdf06d5d	-0.117396094
221	0xbc831a3b	-0.016003719
222	0xbd521278	-0.051287144
223	0xbd1dfcf0	-0.038571298
224	0xbe524c28	-0.20536864
225	0xbd842205	-0.06451801
226	0xbd691c9f	-0.05691206
227	0x3c2bc11f	0.010483055
228	0x3c9ebe92	0.01937798
229	0xbd8b482f	-0.06800877
230	0xbc2a84ef	-0.01040767
231	0x3b8b703d	0.004255323
232	0x3b9aef3f	0.0047282274
233	0x3d7c117e	0.06154012
234	0xbd612753	-0.054969143
235	0xbd82e8a4	-0.06392029
236	0xbd0fd495	-0.035114843
237	0x3d08ca4d	0.033396054
238	0x3d32edfb	0.043683987
239	0xbc5b44ba	-0.013383085
240	0x3b52be49	0.0032156876
241	0xbc10ff6a	-0.008849958
242	0x3c24572c	0.010030549
243	0xbb9de04c	-0.004817998
244	0xbc52d620	-0.012868434
245	0xbcec16ef	-0.02881953
246	0xbd497f46	-0.049193643
247	0xbd45360b	-0.048147243
248	0xbd995fdb	-0.07488986
249	0xbdc5b3f4	-0.09653464
250	0xbda2504a	-0.0792547
251	0xbc894fd5	-0.0167617
252	0x3d46e060	0.048553824
253	0xbca52a62	-0.020161811
254	0xbd9c2b5f	-0.0762546
255	0xbe0ee75e	-0.13955447

fc1.bias f4 [120]
0	0x3e3e4778	0.1858195
1	0x3df1c98c	0.1180602
2	0x3e39bdff	0.18138884
3	0xbd497661	-0.04918516
4	0x3e0131b6	0.1261662
5	0xbe045e1c	-0.12926525
6	0x3e3718b5	0.17880519
7	0x3e22ebdb	0.15910284
8	0x3e028938	0.12747657
9	0x3da55ff2	0.08074941
10	0xbc66ecb6	-0.014094522
11	0xbdd5640f	-0.10419475
12	0xbde06682	-0.10957052
13	0x3e0dbdce	0.13841936
14	0xbd77d8a1	-0.060509328
15	0x3e20653d	0.1566362
16	0xbd873109	-0.066011496
17	0xbd68d213	-0.056840967
18	0x3e047f14	0.12939101
19	0x3cd481d7	0.025940819
20	0xbdecda23	-0.11565044
21	0x3e278cec	0.16362351
22	0xbdd369f6	-0.10322945
23	0x3e3664f4	0.17811948
24	0x3d99915a	0.07498427
25	0x3e0b4681	0.13601114
26	0x3e190dfb	0.1494674
27	0x3df5f7bc	0.12010142
28	0x3e3ff54c	0.18745917
29	0x3e2fc25f	0.1716399
30	0xbdd888de	-0.1057298
31	0xbd47243d	-0.048618544
32	0xbd348e38	-0.044080943
33	0x3cae3dc7	0.021269692
34	0xbdbee959	-0.09321851
35	0xbd79b64f	-0.06096488
36	0xbe0ba642	-0.13637641
37	0x3e358c5c	0.17729324
38	0x3db81323	0.08988025
39	0x3e239c2c	0.15977544
40	0xbe1ddbcd	-0.15415879
41	0x3ca3c5bd	0.01999175
42	0x3e260e93	0.16216497
43	0x3a820716	0.0009920325
44	0x3e3b72ba	0.18305483
45	0xbd1a5d9c	-0.03768693
46	0xbd54c50a	-0.051945724
47	0xbe2e309f	-0.17010735
48	0xbde6e8a4	-0.112748414
49	0xbd6c9da0	-0.05776751
50	0x3e237d6c	0.15965813
51	0xbd377f7f	-0.044799324
52	0xbce69aad	-0.028149927
53	0xbe0e9bcd	-0.13926621
54	0xbcb2f34b	-0.021844527
55	0x3d9897a2	0.07450797
56	0x3e581874	0.21103078
57	0xbdb41a1b	-0.08794042
58	0x3dde1be4	0.108451635
59	0xbd951b6b	-0.0728062
60	0x3cf6b810	0.030117065
61	0xbd8deeee	-0.06930338
62	0x3e33dc0c	0.1756441
63	0x3def9696	0.11698644
64	0xbdc8d1e1	-0.09805656
65	0x3b0e1822	0.0021681865
66	0x3bd3c000	0.006462097
67	0xbda2a0ab	-0.07940801
68	0xbdab9d1a	-0.08379574
69	0x3c8918e7	0.016735507
70	0x3e308631	0.1723869
71	0xbde894b9	-0.113564916
72	0xbded6c26	-0.11592893
73	0xbce845b4	-0.02835355
74	0x3db3b217	0.08774202
75	0x3d849ebd	0.064755894
76	0xbe119e5b	-0.14220564
77	0xbd4dc48e	-0.050236277
78	0x3d5bb47d	0.053638924
79	0xbd9ebc9e	-0.077508196
80	0xbd884360	-0.06653476
81	0xbd0ef60a	-0.03490261
82	0xbdd6024a	-0.10449655
83	0xbdb77dae	-0.089595184
84	0x3be60973	0.0070201694
85	0xbe0eab65	-0.1393257
86	0xbd2938de	-0.041314
87	0x3ceadb88	0.028669134
88	0x3db37803	0.08763125
89	0xbdbe8909	-0.09303481
90	0xbc4bb8d9	-0.012434208
91	0x3cba1050	0.022712857
92	0x3d2466bf	0.04013705
93	0x3c0d37bb	0.008619244
94	0xbe197bb2	-0.14988592
95	0xbe2c9a09	-0.16855635
96	0x3dccc8c3	0.0999923
97	0x3e68d104	0.22735983
98	0x3e04eb92	0.12980488
99	0x3c53dd16	0.012931129
100	0xbc5951ef	-0.013264163
101	0x3e0b0946	0.13577756
102	0xbcc10b6e	-0.02356502
103	0xbe0983d4	-0.13429195
104	0x3df13a35	0.1177868
105	0xbc63580a	-0.013875971
106	0xbca80f64	-0.020515151
107	0x3df3b1e7	0.118991666
108	0xbd83237a	-0.06403251
109	0x3dcfbc5a	0.10143347
110	0x3ddeaab2	0.10872401
111	0x3e241855	0.16024907
112	0xbde96afe	-0.1139736
113	0x3c00eae1	0.0078684995
114	0xbd87b30f	-0.066259496
115	0xbdf75e30	-0.12078512
116	0x3cb202a3	0.021729773
117	0x3e321dbe	0.17394158
118	0xbcdeb7cc	-0.02718725
119	0xbd7b299a	-0.06131897

fc2.weight f4 [60, 120]
0	0xbd768828	-0.060188442
1	0x3d6c1552	0.05763752
2	0xbd9a1602	-0.07523729
3	0xbda0a92d	-0.07844768
4	0x3d1e0d32	0.038586803
5	0x3d88f9e4	0.06688288
6	0xbdc09c49	-0.09404809
7	0xbd903679	-0.0704164
8	0xbd1137e1	-0.03545368
9	0xbd5c1b87	-0.05373719
10	0xbd81e5b3	-0.0634264
11	0xbd8b53a1	-0.0680306
12	0xbbd260ca	-0.0064202296
13	0x3d49eea1	0.04929984
14	0xbd4bebdf	-0.04978549
15	0xbab3f2ed	-0.0013729014
16	0xbd03054c	-0.031987473
17	0xbdd7a560	-0.1052959
18	0xbdbb7abe	-0.091542706
19	0x3da719fe	0.081592545
20	0x3c1bb957	0.009504638
21	0x3d479df5	0.048734624
22	0x3d8526ff	0.065015785
23	0xbdded91a	-0.108812526
24	0xbc91a8fd	-0.017780775
25	0xbd1d0ff9	-0.03834531
26	0xbca00211	-0.019532235
27	0xbd51795d	-0.05114113
28	0xbb7d7b5b	-0.0038678262
29	0xbcd0ab91	-0.025472434
30	0xbd274340	-0.04083562
31	0x3d779593	0.06044538
32	0xbdadee34	-0.08492699
33	0xbb9a7abe	-0.004714339
34	0x3d8f0adf	0.06984495
35	0x3d958bdb	0.07302066
36	0x3d7080b9	0.05871651
37	0xbd3d120c	-0.04615979
38	0xbd0ef419	-0.03490076
39	0x3d600ae6	0.054697894
40	0xbdf01bcd	-0.117240526
41	0x3d92b586	0.07163529
42	0x3d21da91	0.03951508
43	0xbd07c2d0	-0.033144772
44	0xbdc3e289	-0.095646925
45	0xbda29f9d	-0.079406
46	0xbdd97303	-0.1061764
47	0x3d0ff65d	0.03514706
48	0xbda0fbf7	-0.078605585
49	0xbcb9971a	-0.022655059
50	0x3d0daac9	0.0345867
51	0x3c9b1e18	0.018935248
52	0xbcd6a268	-0.026200488
53	0xbc091080	-0.00836575
54	0xbd5b1df1	-0.05349535
55	0xbd7a7b0a	-0.061152495
56	0x3d51bdcc	0.051206395
57	0xbc082966	-0.008310651
58	0x3d6a7d18	0.057248205
59	0x3d8212fe	0.06351279
60	0xbd963806	-0.073349044
61	0x3ca7d440	0.02048695
62	0xbd8175ee	-0.063213214
63	0x3c83a255	0.016068617
64	0x3c91e113	0.017807519
65	0xbc1d408f	-0.0095979115
66	0xbcf4aea3	-0.02986843
67	0x3d06ef4b	0.03294305
68	0xbdc2b7c6	-0.09507708
69	0xbcc9a7d6	-0.024616163
70	0xbccbb134	-0.02486477
71	0xbd706fd0	-0.058700383
72	0x3d4d4332	0.05011291
73	0xba4161c8	-0.0007376936
74	0xbe037a27	-0.12839566
75	0x3cad4901	0.021152975
76	0xbc2d66f9	-0.010583633
77	0x3c4c7a7b	0.0124803735
78	0xbd48fcf5	-0.049069364
79	0xbd364fea	-0.044509806
80	0xbd4419e9	-0.047876272
81	0x3d316fe5	0.0433196
82	0x3d1f19bb	0.038842898
83	0xbbf1e177	-0.007381614
84	0xbb864d18	-0.0040985458
85	0x3d1e96f1	0.038718168
86	0xbd4bdbc5	-0.049770135
87	0xbdd905e0	-0.10596824
88	0x3d087d5f	0.03332269
89	0xbdd79e83	-0.105282806
90	0xbd61c94f	-0.055123623
91	0xbd134f3f	-0.035964247
92	0x3c80e05e	0.015731987
93	0x3d872470	0.06598747
94	0x3c8930c4	0.016746886
95	0xbd921e1d	-0.0713465
96	0xbd77f94c	-0.060540482
97	0x3cb42f77	0.02199529
98	0xbdb47ccf	-0.08812868
99	0xbd6bcf7e	-0.057570927
100	0x3d4c9e2b	0.04995553
101	0x3cf3fd0b	0.029783746
102	0x3d853da1	0.065058954
103	0xbdbfb69a	-0.09361
104	0x3cf499ad	0.029858435
105	0xbd4e13f2	-0.05031199
106	0xbdb221b8	-0.086978376
107	0x3d5c5498	0.053791612
108	0xbc68d727	-0.014211453
109	0xbbc93ef7	-0.006141539
110	0xbd2ca056	-0.042145096
111	0x3d5290a2	0.051407464
112	0x3cd33f4c	0.025787018
113	0x3cd0c776	0.025485735
114	0xbc8650a2	-0.01639587
115	0xbdd42786	-0.10359101
116	0x3d360781	0.04444075
117	0x3d15bb87	0.036555793
118	0xbd925e95	-0.07146946
119	0xbd9d41b9	-0.07678551
120	0x3e2069a9	0.15665306
121	0x3e856b60	0.26058483
122	0x3d84915d	0.06473038
123	0x3bfce218	0.007717382
124	0x3b875c8f	0.004130907
125	0xbd6437fe	-0.05571746
126	0x3d87cd8c	0.06631002
127	0x3db152a0	0.086583376
128	0x3d40120b	0.046892207
129	0x3d9108bc	0.07081744
130	0xbd01a5c2	-0.03165222
131	0x3dad05b8	0.084483564
132	0x3d0424f1	0.032261793
133	0xbd6af929	-0.057366524
134	0x3c4966c7	0.01229257
135	0x3d48c5d6	0.049016796
136	0xbe0e99de	-0.13925883
137	0xbbc46db8	-0.005994525
138	0x3e037a0a	0.12839523
139	0x3d554cdf	0.052075263
140	0x3c9c3337	0.01906739
141	0x3dc01b7e	0.09380244
142	0x3cafde69	0.021468358
143	0x3e2aa1b1	0.16663243
144	0x3dfe9e87	0.124325804
145	0x3d46b6ec	0.04851429
146	0x3dfa1cb0	0.12212503
147	0xbce39c31	-0.027784439
148	0x3dd52b56	0.10408656
149	0x3e3089fb	0.17240135
150	0xbd5f1c88	-0.05447057
151	0xbd00fe8c	-0.031492755
152	0xbd3d6897	-0.046242323
153	0xbc86e96f	-0.016468732
154	0xbc05a615	-0.008157273
155	0xbdbc8678	-0.092053354
156	0xbda8d6ad	-0.08244071
157	0x3d9cc556	0.07654826
158	0xbcbf63bc	-0.023362987
159	0x3cfa3c2a	0.030546267
160	0xbd65fd11	-0.056149546
161	0x3d3b7fcf	0.045776185
162	0x3e16ac7e	0.14714238
163	0xbdc49797	-0.09599226
164	0x3e59d3f8	0.21272266
165	0xbd068a26	-0.032846592
166	0x3da259d3	0.07927289
167	0xbe096be7	-0.13420068
168	0x3d5e1d32	0.05422706
169	0xbd5dc479	-0.05414245
170	0xbacbb33c	-0.0015541087
171	0xbd33a1f4	-0.043855622
172	0x3a281cc5	0.00064129784
173	0xbd0a3d2e	-0.03374975
174	0xbb24eb2d	-0.002516459
175	0x3dd6bfbb	0.104857884
176	0x3e5bde9f	0.21471642
177	0x3c5d7484	0.013516549
178	0x3d8d279c	0.068923205
179	0x3d17c465	0.03705253
180	0xbddef20d	-0.10886011
181	0x3dfc02de	0.123052344
182	0x3d8b3985	0.0679808
183	0x3d6a61af	0.057222065
184	0x3c93d0c0	0.018043876
185	0xbdaec9c7	-0.0853458
186	0x3c1508cf	0.009096338
187	0xbd754d79	-0.059888337
188	0xbd22f808	-0.039787322
189	0x3d3b6b42	0.045756586
190	0x3e3b7779	0.18307294
191	0x3d84f4be	0.06491993
192	0xbdae1f7b	-0.08502098
193	0x3d94b517	0.07261103
194	0xbc1308f2	-0.008974301
195	0x3e0f54f2	0.13997248
196	0xbcbab105	-0.022789488
197	0x3d6302b4	0.0554225
198	0xbd2563e4	-0.040378466
199	0xbd8c6b39	-0.068563886
200	0xbd1c2273	-0.03811879
201	0xbc97cd25	-0.018530438
202	0x3d6722a4	0.05642952
203	0xbd049133	-0.032365035
204	0x3da5cafd	0.080953576
205	0x3b53a9e3	0.0032297305
206	0x3d27d9e3	0.040979277
207	0x3bf87f5a	0.007583541
208	0xbd88f823	-0.06687953
209	0x3d19fcd4	0.03759463
210	0xbd2df951	-0.042474095
211	0x3d27220b	0.04080395
212	0xbd554890	-0.052071154
213	0x3db7305d	0.089447714
214	0x3d3ced2a	0.046124615
215	0xbd2fb7d4	-0.04289992
216	0x3cfacf88	0.030616537
217	0x3e3250b0	0.17413592
218	0x3e07bad7	0.13254867
219	0xbd363bd7	-0.04449066
220	0xbdcad4a3	-0.099038385
221	0x3d70720b	0.05870251
222	0x3cd2ced3	0.025733387
223	0xbd0f92b1	-0.035052005
224	0x3c346625	0.011010681
225	0x3d5d6444	0.0540507
226	0x3da3994d	0.07988224
227	0x3d1f56dc	0.038901195
228	0x3ae5da6d	0.001753641
229	0x3aac1353	0.0013128318
230	0x3ce91f8d	0.028457427
231	0x3e109b5f	0.1412177
232	0xbc6d4cbf	-0.01448363
233	0xbd6ea883	-0.058266174
234	0x3d2b1d13	0.041775774
235	0xbc8f3415	-0.01748089
236	0x3d3b0239	0.045656417
237	0x3df30934	0.1186699
238	0x3d2898aa	0.041161217
239	0xbddacbfb	-0.106834374
240	0xbe0f480d	-0.13992329
241	0xbdca03ba	-0.09863992
242	0xbd2fad18	-0.042889684
243	0xbdc1c3d9	-0.09461183
244	0x3d45be5b	0.04827724
245	0x3deaa086	0.11456399
246	0xbdbe6522	-0.09296633
247	0x3d95c226	0.073124215
248	0xbc65911d	-0.0140116485
249	0x3d0ec105	0.034852047
250	0xbdaf78d0	-0.08567965
251	0x3dbde8e0	0.09272933
252	0x3d1c1bae	0.038112335
253	0x3d416233	0.04721279
254	0x3d157423	0.03648771
255	0xbbe43371	-0.00696414

fc2.bias f4 [60]
0	0xbdaaf52b	-0.08347543
1	0x3e73aa8a	0.23795524
2	0xbc87c440	-0.016573071
3	0x3dc1bd9c	0.09459993
4	0x3e2bbbee	0.16770908
5	0x3df37af6	0.11888687
6	0xbcb5b7ea	-0.022182424
7	0xbd32f54b	-0.04369096
8	0xbbc0182b	-0.005862256
9	0xbdbb56fe	-0.09147452
10	0x3dfa69e4	0.12227228
11	0x3d5be342	0.053683527
12	0x3e3660fa	0.17810431
13	0x3e48bbda	0.1960291
14	0x3e6cc7dc	0.23123115
15	0xbbe84dce	-0.007089353
16	0xbd03121e	-0.0319997
17	0x3e2e09cb	0.16995923
18	0x3e34da72	0.17661455
19	0x3e166841	0.14688207
20	0x3ddb3243	0.10702946
21	0xbdcf3d3a	-0.101191
22	0x39a42db2	0.00031314563
23	0xbd0946b6	-0.0335147
24	0xbdd892ca	-0.10574873
25	0x3c6e791f	0.014555245
26	0xbd1c434e	-0.038150124
27	0x3a7c3575	0.0009621003
28	0x3b347fa2	0.0027541895
29	0x3e2f1289	0.17096914
30	0x3e2d0839	0.16897668
31	0x3e527485	0.20552261
32	0xbd377228	-0.044786602
33	0xbc9c1c51	-0.019056471
34	0x3ba29c9e	0.004962518
35	0xbd1c2271	-0.038118783
36	0x3e490888	0.1963216
37	0xbdd619ab	-0.104541145
38	0x3db9f9fb	0.09080883
39	0x3d796cde	0.06089484
40	0xbe0f205c	-0.13977188
41	0xbdb6b647	-0.089214854
42	0xbdc3d94c	-0.095629305
43	0xbd02875f	-0.03186738
44	0xbcbc04af	-0.022951452
45	0x3e323179	0.17401685
46	0xbd71734c	-0.058947846
47	0x3cd46fc0	0.025932193
48	0xbd7b0480	-0.06128359
49	0xbccd05a1	-0.025027098
50	0xbced6780	-0.028980017
51	0x3e5021b4	0.20325357
52	0xbdf320fb	-0.11871525
53	0x3b9aad08	0.004720334
54	0xbda4583c	-0.08024642
55	0xbe083231	-0.13300397
56	0xbd44a0d9	-0.04800496
57	0xbdab12db	-0.08353206
58	0xbe1dcde4	-0.15410572
59	0x3e338444	0.17530924

out.weight f4 [1, 60]
0	0x36c15211	5.761402e-06
1	0xbdcb9b42	-0.099417225
2	0x3df517d5	0.11967436
3	0xbe0fc470	-0.14039779
4	0xbdbb9edc	-0.091611594
5	0xbe38fc6c	-0.18065041
6	0x3d871d49	0.065973826
7	0x3e136bae	0.14396545
8	0x3d7222f8	0.05911538
9	0x3deedf39	0.1166367
10	0xbe2e16d3	-0.17000894
11	0x3d0638b6	0.032768928
12	0xbe057263	-0.13031916
13	0xbe22acc9	-0.15886225
14	0xbe260454	-0.16212589
15	0x3e3aa754	0.18227893
16	0x3e1c9ef9	0.15295018
17	0xbdc855a7	-0.09781962
18	0xbdc231ae	-0.09482132
19	0xbe416f60	-0.18890142
20	0xbdd6015d	-0.10449479
21	0x3da033c6	0.07822375
22	0x3de174c6	0.11008601
23	0x3db033c5	0.08603624
24	0x3dd19695	0.10233799
25	0x3dbf94e5	0.09354571
26	0x3e31373c	0.17306226
27	0x3e0e3782	0.13888362
28	0xbbecdca7	-0.0072284522
29	0xbe6673cf	-0.22505115
30	0xbe297c33	-0.16551284
31	0xbde15cf7	-0.1100406
32	0x3dc70825	0.0971835
33	0xbca16cca	-0.019705195
34	0x3e25ae58	0.16179788
35	0x3db8f23b	0.09030577
36	0xbe1e34bd	-0.15449806
37	0xbbc0e389	-0.0058864993
38	0xbe4f7829	-0.20260681
39	0xbe157beb	-0.14598052
40	0x3daff97d	0.08592508
41	0x3e31c77a	0.1736125
42	0x3d9e8643	0.07740452
43	0x3e30cbc7	0.17265235
44	0xbd0d0b9b	-0.034434896
45	0xbe4c7148	-0.19965088
46	0x3d0a39eb	0.03374664
47	0xbe1cd277	-0.15314661
48	0x3da4c665	0.08045653
49	0x3dfe2c7f	0.12410831
50	0x3cf61c4d	0.030042792
51	0xbe022454	-0.1270917
52	0x3e191324	0.14948708
53	0x3d9d6646	0.07685523
54	0x3e085257	0.1331266
55	0x3da2a1c4	0.079410106
56	0xbd4ce873	-0.05002637
57	0xbd6630bb	-0.056198817
58	0x3d84faf6	0.064931795
59	0xbe0fc5c4	-0.14040285
