model.pth (torch, 186121 bytes, 9 tensors)

conv1.weight f4 [6, 3, 5, 5]
0	0xbd55f556	-0.052235924
1	0x3d48ed3c	0.04905437
2	0xbd425a5a	-0.047449447
3	0xbdc463bd	-0.09589336
4	0xbdfd8197	-0.12378233
5	0xbe1e2779	-0.15444745
6	0x3cff3d5c	0.031157188
7	0xbd3713f1	-0.044696752
8	0x3d5d29cd	0.053994942
9	0xbc7d51cc	-0.015461396
10	0xbc9380a8	-0.018005684
11	0x3c9c6b04	0.019093998
12	0xbd214ce3	-0.039379966
13	0xbd097961	-0.03356302
14	0x3cdc719f	0.026909648
15	0x3d0c5bf0	0.034267366
16	0xbd8a1f6c	-0.067442745
17	0x3c5f58ea	0.013632039
18	0x3cf31e03	0.029677397
19	0xbdfd700d	-0.123748876
20	0xbd99d0d7	-0.07510536
21	0xbe40c6aa	-0.18825784
22	0xbe0e1789	-0.13876165
23	0xbdc1c0f3	-0.0946063
24	0xbd8efcc5	-0.06981806
25	0x3d4a242d	0.049350906
26	0x3d626882	0.055275448
27	0x3dfc0e97	0.1230747
28	0x3d929c92	0.0715877
29	0x3a926b27	0.001117085
30	0x3dc7f836	0.09764139
31	0xbdbb6ccf	-0.09151613
32	0x3d0b0527	0.03394046
33	0x3c3764c5	0.011193459
34	0x3dd0b8b2	0.10191478
35	0x3dcd38a4	0.10020569
36	0xbca9055e	-0.020632442
37	0xbd61caac	-0.055124924
38	0x3df2ac3b	0.118492566
39	0x3d6392b7	0.05555984
40	0x3d1cb4a9	0.03825823
41	0x3c963d0b	0.018339654
42	0x3b22bdc4	0.0024832347
43	0x3d26be80	0.04070902
44	0xbd4eb621	-0.05046666
45	0xbd6feadc	-0.05857359
46	0xbcc9f55a	-0.024653126
47	0x3dbe4ac2	0.09291603
48	0xbd0ddb2e	-0.034632854
49	0x3ce8c9ed	0.028416598
50	0xbc8a5877	-0.016887886
51	0xbd9ca6c4	-0.076489955
52	0x3c3b5d05	0.011435752
53	0x3db3b095	0.08773915
54	0x3c1f9edb	0.009742464
55	0xbdf121c6	-0.1177402
56	0x3d358745	0.044318456
57	0x3bc0445f	0.0058675255
58	0xbdb41ae9	-0.08794195
59	0x3e0f6937	0.1400498
60	0xbdf72d33	-0.12069168
61	0x3e03e237	0.12879263
62	0x3dd54cdb	0.1041505
63	0x3e06efd9	0.13177432
64	0x3d836b9d	0.0641701
65	0x3dc2af33	0.09506073
66	0xbd5567ad	-0.052100826
67	0x3e00784c	0.1254589
68	0xbd3bbdf0	-0.045835435
69	0x3dfd8b4a	0.12380083
70	0xbdbd6dda	-0.09249468
71	0x3d2c6411	0.04208762
72	0x3d85abf9	0.06526942
73	0x3dc16613	0.09443297
74	0x3d0cb93f	0.034356352
75	0xbd0b8d54	-0.034070328
76	0x3c1d78b9	0.009611302
77	0x3e2c1e54	0.16808444
78	0xbd9ea860	-0.07746959
79	0xbd093a89	-0.03350309
80	0xbdccba6b	-0.09996494
81	0xbd5cd757	-0.0539163
82	0x3e674c45	0.22587688
83	0x3d6378c6	0.0555351
84	0xbd9788f0	-0.07399166
85	0xbe1863f7	-0.14881884
86	0x3c811cf7	0.015760882
87	0x3e4365c1	0.19081785
88	0xbc8bee0a	-0.01708128
89	0xbde35473	-0.11100092
90	0xbe10d692	-0.14144352
91	0xbd4364b6	-0.047703467
92	0x3e290d38	0.16508949
93	0x3dd7a857	0.10530155
94	0xbe065a5b	-0.13120405
95	0xbd94acc6	-0.072595164
96	0xbdaf53a1	-0.08560873
97	0x3b5fae96	0.003413116
98	0x3e1a958f	0.15096115
99	0xbdcf9c7c	-0.10137269
100	0xbd4b38f1	-0.04961485
101	0x3d2f7b2d	0.04284208
102	0x3e03e1cf	0.12879108
103	0xbd9e6a67	-0.077351384
104	0xbdc423d0	-0.09577143
105	0x3d58a198	0.052888483
106	0x3c0a2338	0.008431248
107	0x3e35c416	0.17750582
108	0xbd5a7065	-0.053329844
109	0xbe287871	-0.16452195
110	0xbe1c2f05	-0.15252312
111	0xbd8bac71	-0.0682
112	0x3e0d6ae7	0.13810311
113	0x3df714fc	0.12064549
114	0xbd8b1d33	-0.06792679
115	0xbd60124f	-0.05470496
116	0xbe09a009	-0.13439955
117	0x3d9b0d52	0.075709
118	0x3d34426b	0.044008654
119	0xbd238312	-0.03991992
120	0x3d02fcd0	0.031979382
121	0x3d0900c5	0.033448
122	0x3cb0a957	0.021565123
123	0x3dad58d0	0.08464205
124	0xbca2b57b	-0.019861927
125	0xbbe00972	-0.0068370635
126	0xbce0a4b2	-0.027422283
127	0x3e0563d5	0.13026364
128	0xbdcac304	-0.099004775
129	0xbd1c06c4	-0.03809239
130	0xbd878396	-0.06616895
131	0xbdbf2d58	-0.093348205
132	0x3e1ee5d4	0.1551736
133	0x3dc77a2a	0.09740098
134	0xbd20a89f	-0.03922331
135	0x3d96092b	0.073259674
136	0x3c885bfe	0.016645428
137	0x3d358960	0.044320464
138	0x3cc3c458	0.023897335
139	0xbe323a13	-0.17404966
140	0x3cbdba41	0.023160102
141	0xbd0dd522	-0.034627087
142	0x3e0099e8	0.1255871
143	0x3e02c0a2	0.12768796
144	0xbd3e52c8	-0.046465665
145	0xbd8b94fa	-0.068155244
146	0xbcb43aea	-0.022000749
147	0x3cb8b12e	0.022545423
148	0x3d96ab47	0.07356887
149	0xbc3ae944	-0.011408154
150	0x3d3175e5	0.043325324
151	0xbc14a28a	-0.009071955
152	0xbca0b0f8	-0.019615635
153	0xbdb3fc58	-0.08788365
154	0xb9f5a5d5	-0.00046853596
155	0x3ca5dd05	0.020246992
156	0xbe26d236	-0.16291127
157	0x3c095208	0.008381374
158	0x3d91e719	0.071241565
159	0xbdf41207	-0.11917501
160	0x3df6e319	0.12055034
161	0xbd2646bb	-0.040594798
162	0x3d9022b6	0.070378706
163	0x3d831410	0.06400311
164	0xbd7516f0	-0.059836328
165	0x3cbd1538	0.023081407
166	0x3e0607a4	0.13088852
167	0x3d6f0c89	0.058361564
168	0x3ccbe4cc	0.024889372
169	0x3dbcfd60	0.09228015
170	0x3de50611	0.11182798
171	0x3de834c0	0.11338186
172	0x3ddb7fce	0.10717736
173	0xbd2530a7	-0.0403296
174	0xbda234f5	-0.07920257
175	0x3dd802e3	0.105474256
176	0xbc2a40ab	-0.010391395
177	0xbbb0cb90	-0.0053953603
178	0xbd8506ed	-0.064954616
179	0xbdd97090	-0.10617173
180	0xbc93a10a	-0.018021125
181	0xbc5b339a	-0.013379002
182	0x3d7aaff0	0.061202943
183	0xbce682a8	-0.028138474
184	0xbd97e64e	-0.07416974
185	0x3d34a7b4	0.044105247
186	0xbc75151c	-0.014958646
187	0x3d6497eb	0.055808943
188	0x3d2c849b	0.04211865
189	0x3d408539	0.04700205
190	0x3b9199e3	0.0044433936
191	0x3e0cce58	0.13750589
192	0x3d82a14e	0.06378423
193	0xbcf68b61	-0.030095758
194	0x3d3228fd	0.04349612
195	0x3d7111ac	0.058854744
196	0x3e2a1ffd	0.16613765
197	0x3d8a2b4e	0.06746541
198	0xbd46d889	-0.048546348
199	0xbdd52892	-0.10408129
200	0xbd8f13a2	-0.069861665
201	0xbdac1d2d	-0.08404002
202	0xbc276506	-0.010216957
203	0x3d94bdf2	0.07262792
204	0xbd0508f7	-0.032479253
205	0xbd5e9579	-0.054341767
206	0x3d11416f	0.035462793
207	0x3c3ff90e	0.011717094
208	0x3d8327d1	0.06404079
209	0x3daafce7	0.083490185
210	0xbd988b6b	-0.07448467
211	0x3da0fff0	0.07861316
212	0xbd9aadde	-0.07552694
213	0xbd969462	-0.073525205
214	0x3c19af88	0.009380229
215	0xbc10ce44	-0.00883824
216	0x3dfd6340	0.12372446
217	0x3dca9be8	0.09893018
218	0x3d1e3b4f	0.03863078
219	0xbc812e44	-0.015769131
220	0x3d4f556d	0.050618578
221	0x3dd9d5e1	0.10636497
222	0x3d8a1b29	0.06743462
223	0x3c89d801	0.016826632
224	0xbda3f867	-0.08006363
225	0x3d9768de	0.07393049
226	0xbdff7bfd	-0.12474821
227	0xbd454e18	-0.04817018
228	0xbd07d9e1	-0.03316677
229	0xbcb871a1	-0.02251512
230	0xbc94e98e	-0.018177774
231	0xbdf5487a	-0.119767144
232	0x3ddad514	0.10685173
233	0x3b7528c1	0.0037408324
234	0x3c89973a	0.016795743
235	0x3c9eefe8	0.019401506
236	0x3dc285dd	0.09498189
237	0xbd0195b5	-0.031636912
238	0x3d73b29b	0.059496503
239	0xbda6ba09	-0.08140952
240	0xbbd2c0f5	-0.0064316937
241	0x3c8edc2b	0.017438969
242	0x3dd50d0c	0.10402879
243	0x3bac2886	0.005253854
244	0xbd71d5ea	-0.059041895
245	0x3d307de2	0.0430888
246	0x3d17f147	0.037095334
247	0x3e2debcb	0.16984479
248	0x3d89d48e	0.06729995
249	0xbe0a92ed	-0.1353261
250	0xbdc61ad0	-0.09673083
251	0xbc0b2f71	-0.008495198
252	0xbe0fb211	-0.1403277
253	0xbd1dccbb	-0.038525324
254	0x3e0b4c3b	0.13603298
255	0xbdd75fba	-0.10516305

conv1.bias f4 [6]
0	0x3cf69b7b	0.030103436
1	0xbe0a5c7e	-0.13511845
2	0x3e0f59f5	0.1399916
3	0x3dbba5c6	0.09162478
4	0x3d127427	0.035755303
5	0xbd5e4994	-0.05426939

conv2.weight f4 [12, 6, 5, 5]
0	0x3ce4ddbb	0.02793776
1	0x3d9fe390	0.07807076
2	0x3d8e6f0a	0.06954773
3	0x3ce0d579	0.027445542
4	0xbd941eda	-0.07232447
5	0x3d5d2286	0.053988002
6	0xbd2a37fc	-0.041557297
7	0x3d30ae11	0.043134753
8	0xbd120290	-0.035646975
9	0xbcc272a9	-0.023736315
10	0x3d73d79a	0.059531786
11	0x3d7258d7	0.059166756
12	0xbdcd7d0b	-0.10033616
13	0x3bd80f54	0.006593624
14	0xbda11180	-0.07864666
15	0xbdd865cf	-0.105662934
16	0x3c93fd61	0.018065156
17	0xbdb3f13c	-0.08786246
18	0xbce22af1	-0.027608367
19	0xbddc8812	-0.10768141
20	0x3d2f7a89	0.042841468
21	0x3d7b09b0	0.061288536
22	0xbd15d670	-0.036581457
23	0x3c8becd8	0.01708071
24	0x3c46b058	0.012127005
25	0xbd0eee3b	-0.034895163
26	0xbc845e6b	-0.016158303
27	0xbd61a519	-0.05508909
28	0x3dd65fb6	0.10467474
29	0xbb016f8d	-0.0019750327
30	0xbd382483	-0.044956695
31	0xbd867b13	-0.06566443
32	0x3d35f3ca	0.04442195
33	0x3cd2d7a2	0.025737587
34	0x3d86de48	0.065853655
35	0xbcf68a58	-0.030095264
36	0x3ce19946	0.027538907
37	0xbcd4488f	-0.025913505
38	0xbd072571	-0.03299469
39	0x3afba55a	0.0019199059
40	0x3d821d9c	0.06353304
41	0x3dbed86c	0.09318623
42	0xbd070d46	-0.032971643
43	0xbc3b4f2b	-0.011432449
44	0x3df29896	0.1184551
45	0xbbd979f1	-0.006636851
46	0x3d0ab1d8	0.03386101
47	0xbbef8121	-0.0073090945
48	0x3a10129b	0.00054959365
49	0x3de41f13	0.111387394
50	0x3c9e2de5	0.019308994
51	0x3d5ddace	0.054163747
52	0x3d07c095	0.033142645
53	0x3c7bfa4d	0.015379501
54	0xbd8dfd57	-0.06933086
55	0x3d1c32e8	0.038134485
56	0x3dc9de97	0.09856909
57	0xbdb56dfc	-0.088588685
58	0xbdf428c1	-0.11921836
59	0xbd0ee1fe	-0.03488349
60	0x3e15d378	0.1463145
61	0xbc27d720	-0.010244161
62	0x3ced60fa	0.028976906
63	0xbd1d08af	-0.03833836
64	0xbd832fd4	-0.06405607
65	0x3db02a59	0.08601827
66	0xbcfaba5b	-0.03060644
67	0xbd59dc4e	-0.053188615
68	0xbd47f244	-0.048815027
69	0x3d34d862	0.04415167
70	0x3d9b3186	0.07577805
71	0xbd21211e	-0.039338224
72	0xbd7bef92	-0.06150777
73	0x3c08caaf	0.008349105
74	0x3c952ef5	0.018210867
75	0x3dbe082d	0.09278903
76	0x3dab67ab	0.083693825
77	0x3d8a5171	0.06753815
78	0xba9182c6	-0.0011101596
79	0xbdede4c9	-0.11615903
80	0xbab9f372	-0.0014186932
81	0x3c554536	0.013016989
82	0xbd648e1d	-0.055799592
83	0xbe1118d9	-0.14169635
84	0xbddb03ef	-0.1069411
85	0x3a927dbb	0.0011176387
86	0x3d86a3b7	0.06574195
87	0x3c028f89	0.007968792
88	0xbda52d41	-0.08065272
89	0x3d2b7d83	0.041867744
90	0xbdb91498	-0.09037131
91	0xbd44ba7a	-0.0480294
92	0xbab62fb2	-0.0013899712
93	0x3c83c1bb	0.016083589
94	0x3ce7887d	0.028263325
95	0xbbab1168	-0.005220581
96	0xbdbf4cff	-0.09340858
97	0xbd2c3fb0	-0.042052925
98	0xbdd47a4b	-0.10374888
99	0x3c6588ae	0.014009638
100	0x3da97dce	0.082759485
101	0x3d79df86	0.061004184
102	0x3e0085eb	0.12551086
103	0x3d453ee3	0.048155677
104	0x3d1d4ea5	0.03840508
105	0xbdd71b5c	-0.10503265
106	0x3c799326	0.015232837
107	0xbd6c4785	-0.057685394
108	0x3d34077f	0.04395246
109	0x3d7f66f9	0.06235406
110	0xbbbb27e8	-0.0057115443
111	0xbe0b5f30	-0.1361053
112	0xbd210ae8	-0.03931704
113	0xbccac9b3	-0.02475438
114	0xbd952870	-0.072831035
115	0xbd9f98a9	-0.077927895
116	0x3da66b10	0.08125889
117	0x3c777844	0.015104357
118	0xbd90a76e	-0.07063185
119	0xbb9b2328	-0.0047344156
120	0x3d9aa3e3	0.0755079
121	0xbc4a5eb1	-0.012351678
122	0x3dc4068e	0.09571563
123	0xbd76fcc4	-0.06029965
124	0xbd462027	-0.048370507
125	0x3db1f5a0	0.086894274
126	0x3ddb2259	0.10699911
127	0x3dbaed53	0.09127297
128	0x3c59b3ab	0.013287465
129	0x3dce6203	0.10077288
130	0x3db07b61	0.08617283
131	0x3d4111b2	0.047136016
132	0xbb6087c0	-0.00342606
133	0x3c423d72	0.01185547
134	0x3e00092c	0.12503499
135	0xbcd96c86	-0.026541006
136	0x3db23a5d	0.08702538
137	0x3c55b59b	0.013043786
138	0x3d6089cc	0.054818913
139	0xbce5d68d	-0.028056407
140	0xbd9cc8be	-0.07655476
141	0xbc7b794c	-0.015348744
142	0xbd884921	-0.06654573
143	0xbd80ad96	-0.06283109
144	0xbe10a6d3	-0.14126138
145	0xbd421ffb	-0.04739378
146	0xbdc0be4a	-0.09411295
147	0x3bcb800b	0.0062103323
148	0xbe021eb8	-0.12707031
149	0x3d302fa2	0.043014176
150	0xbd47cfde	-0.048782222
151	0xbd358fe5	-0.04432668
152	0xbd4ff439	-0.05077002
153	0xbe0cf15e	-0.1376395
154	0x3d979ca5	0.074029244
155	0xbbe1eb88	-0.0068945326
156	0x3c9722c8	0.018449202
157	0x3d88ca8f	0.0667926
158	0xbcf543dc	-0.029939584
159	0x3db55eca	0.0885597
160	0x3c29956f	0.010350569
161	0xbcd57981	-0.026058914
162	0xbd31e8d1	-0.04343492
163	0x3d06d9a8	0.032922417
164	0x3d92b664	0.071636945
165	0x3d16da97	0.036829557
166	0xbd0b77b5	-0.03404971
167	0x3cae6e7e	0.021292921
168	0x3d378ce9	0.044812117
169	0xbd846561	-0.06464649
170	0x3e0d35c6	0.13790044
171	0x3d3ab7f6	0.045585595
172	0xbd03dfde	-0.03219592
173	0x3be6ab3e	0.0070394566
174	0xbb7b1874	-0.0038314136
175	0xbcfb6606	-0.030688297
176	0xbdfce248	-0.12347847
177	0xbd148e1e	-0.036268346
178	0x3beb87e6	0.007187831
179	0xbd57954d	-0.05263262
180	0x3ced8a59	0.028996633
181	0x3c0e640e	0.008690847
182	0x3d9c8815	0.07643143
183	0x3dadc050	0.08483946
184	0xbd788d28	-0.060681492
185	0xbcb95427	-0.022623135
186	0x3d099a89	0.03359464
187	0x3d0e3889	0.034721885
188	0x3d312d82	0.04325629
189	0x3cde4bfd	0.027135843
190	0x3c09fb0c	0.008421671
191	0x3d653000	0.05595398
192	0x3d162d9f	0.0366646
193	0xbbccd58e	-0.0062510436
194	0xbc44bcf4	-0.012007941
195	0x3c8a146d	0.016855443
196	0x3dfbbad9	0.12291498
197	0x3de88d71	0.11355103
198	0x3d374249	0.04474095
199	0xbc1235d4	-0.008923966
200	0xbdbbeb8a	-0.09175785
201	0xbca38a8b	-0.019963523
202	0x3ca9c60a	0.020724315
203	0x3d116684	0.035498157
204	0xbbdd380c	-0.006751066
205	0x3d646dd1	0.05576879
206	0x3d7251f3	0.059160184
207	0x3c3c16c1	0.011480034
208	0xbddd9732	-0.10819854
209	0x3d9bcdaa	0.07607587
210	0xbd2fb6ff	-0.042899128
211	0x3b7b8545	0.0038378995
212	0xbc8db326	-0.017297339
213	0x3d019c29	0.031643067
214	0xbcf8450f	-0.030306367
215	0xbd3976c2	-0.045279272
216	0x3c107288	0.008816369
217	0x3d9e2032	0.077209845
218	0xbd84c517	-0.064829044
219	0xbdac5743	-0.08415081
220	0xbd2aeb3b	-0.04172824
221	0xbdb6357a	-0.088969186
222	0x3d6e4540	0.05817151
223	0x3d970b99	0.07375259
224	0xbdc92926	-0.098223016
225	0xbd1bbece	-0.038023762
226	0x3d96e4da	0.07367869
227	0x3d4880c1	0.048950914
228	0xbd42b815	-0.047538836
229	0x3d2e2d89	0.042523894
230	0x3c5f446a	0.013627151
231	0x3d880034	0.06640664
232	0xbd1b8d32	-0.03797645
233	0xbd555ae9	-0.05208865
234	0xbd2996fb	-0.04140375
235	0xbdd8da21	-0.1058848
236	0xbe1bef1d	-0.15227933
237	0xbd44569c	-0.04793416
238	0xbd7bd899	-0.06148586
239	0xbdfa4078	-0.12219328
240	0xbdc2c5bd	-0.09510372
241	0xbda92145	-0.08258299
242	0xbda63a04	-0.08116534
243	0xbd67ebcc	-0.056621358
244	0xbe364092	-0.17798069
245	0xbe0862c8	-0.13318932
246	0xbd701f09	-0.058623347
247	0xbcd67042	-0.026176576
248	0xbd46509c	-0.04841672
249	0xbe046358	-0.12928522
250	0x3d6dfca7	0.058102276
251	0x3cf98a97	0.030461593
252	0xbb9fed37	-0.004880573
253	0xbd38afb0	-0.045089424
254	0x3d2c5b46	0.042079233
255	0x3d4db171	0.05021805

conv2.bias f4 [12]
0	0xbd54bb3c	-0.051936373
1	0x3e738017	0.23779331
2	0x3df45ddf	0.11931967
3	0xbd607350	-0.05479747
4	0xbe3b5693	-0.18294744
5	0xbd8f59c0	-0.0699954
6	0xbbf93a1e	-0.007605805
7	0xbda57d27	-0.080805115
8	0xbdd51924	-0.10405186
9	0x3d78a23b	0.06070159
10	0xbe10d44c	-0.14143485
11	0x3dcbba90	0.09947693

fc1.weight f4 [120, 300]
0	0xbd6cbc22	-0.057796605
1	0x3c2377a1	0.009977252
2	0x3c0d2807	0.0086155
3	0x3cf62885	0.030048618
4	0x3bd1e68e	0.006405658
5	0x3cb011f1	0.02149293
6	0x3cd57e05	0.026061067
7	0x3d278cc6	0.040905736
8	0x3d5269cd	0.05137043
9	0xbd88e895	-0.066849865
10	0xbd4d9acc	-0.050196454
11	0xbc8f36b2	-0.017482135
12	0x3d559246	0.05214145
13	0x3c3687ca	0.011140773
14	0x3c361281	0.01111281
15	0xbcdacc4b	-0.026708743
16	0xbd205498	-0.039143175
17	0x3cbdc9de	0.023167547
18	0xbd3dfd95	-0.046384413
19	0xbc5d68b3	-0.013513732
20	0xba33954a	-0.0006850554
21	0xbcaaf3e5	-0.020868251
22	0xbc53f0fe	-0.012935875
23	0xbce3ac5d	-0.02779215
24	0x3d04ee84	0.03245403
25	0xbc2088fa	-0.009798283
26	0xbb3ed84e	-0.0029120627
27	0x3d12ac0e	0.035808615
28	0xbd8c0a37	-0.06837886
29	0xbd397e6b	-0.045286577
30	0xbc19c1bc	-0.009384569
31	0x3c0e90be	0.008701501
32	0xbc83bc47	-0.016080989
33	0xbc5bcf6f	-0.013416155
34	0xbcf7ac4a	-0.030233521
35	0x39c361c9	0.00037266154
36	0x3d1d9fcd	0.038482476
37	0xbafe0cbc	-0.0019382457
38	0xbce329b3	-0.027729845
39	0xbbcbbb5b	-0.006217403
40	0xbd036ab6	-0.03208419
41	0x3d0d8ac8	0.03455618
42	0xbd24d533	-0.040242385
43	0x3b398989	0.0028310737
44	0xbd0b5f08	-0.034026176
45	0x3b8acb13	0.004235634
46	0xbd763d88	-0.060117275
47	0xbcdc6f5e	-0.026908573
48	0x3d62ae5f	0.055342074
49	0x3d632e0a	0.05546383
50	0xbd8be5b5	-0.068309225
51	0x39425c8b	0.00018535757
52	0x3d37132f	0.04469603
53	0x3cb8a435	0.022539238
54	0x3d290b82	0.04127074
55	0xbca0496c	-0.01956626
56	0xbcdfa7a9	-0.027301626
57	0xbd22b5e5	-0.03972425
58	0x3ca08741	0.019595744
59	0xbd495127	-0.04914966
60	0xbd1d2f1d	-0.03837501
61	0xbd98e0f2	-0.0746478
62	0x3d270b1a	0.04078207
63	0xbd3262c7	-0.043551233
64	0xbd8d91d9	-0.06912584
65	0xbc2c953e	-0.010533629
66	0xbd52d414	-0.051471785
67	0xbcd5cd60	-0.026098907
68	0xbd19e71a	-0.03757391
69	0x3b2a2a6f	0.0025965234
70	0x3d5b0166	0.05346813
71	0x3c25d33d	0.010121164
72	0xbcecadbd	-0.028891439
73	0xbbf6f2fa	-0.0075362893
74	0x3afaf8c9	0.001914763
75	0xbaaf36e9	-0.0013367805
76	0xbda37633	-0.07981529
77	0xbd9b2665	-0.075756826
78	0xba916656	-0.001109312
79	0xbd6aab12	-0.05729205
80	0x3d13ff59	0.03613219
81	0xbd0d67e0	-0.03452289
82	0x3c3caf3c	0.0115163885
83	0x3cacbbe7	0.021085693
84	0xbd0056f3	-0.03133292
85	0x3c8f4601	0.017489435
86	0xbd255086	-0.040359996
87	0x3d480efe	0.048842423
88	0x3d116f7d	0.035506714
89	0x3b272653	0.002550502
90	0xbb1d019e	-0.0023957263
91	0xbd31b18e	-0.04338222
92	0x3c8da7e9	0.01729198
93	0xbd027516	-0.031849943
94	0xbc4cb2c5	-0.012493794
95	0xbc82d7b2	-0.015971992
96	0xbd0e05a5	-0.03467335
97	0x3d0e01c2	0.034669645
98	0xbca4a22b	-0.020096859
99	0x3d13f894	0.036125734
100	0x3c2ed9b1	0.010672019
101	0xbb3d7a89	-0.0028912148
102	0xbceeddec	-0.029158555
103	0x3d2b843e	0.041874163
104	0xbc884312	-0.016633544
105	0xbd04c213	-0.032411646
106	0x3d3e151a	0.046406843
107	0xbce64bc0	-0.028112292
108	0x3c7fbd54	0.015609104
109	0x3cedfb45	0.029050479
110	0x3d09dd13	0.0336581
111	0xbcc6fa06	-0.024289142
112	0x3c2887e7	0.010286308
113	0xbd93ec4b	-0.07222804
114	0x3cda0a10	0.026616126
115	0x3d01d2a6	0.03169503
116	0x3c0b73d1	0.0085114995
117	0x3d3e33fa	0.046436287
118	0xbb0bea64	-0.0021349424
119	0xbd0f13f2	-0.03493113
120	0x3d5180b9	0.05114815
121	0x3b6bc0d1	0.0035973082
122	0xbcc75e66	-0.024337005
123	0xbd3340f3	-0.043763112
124	0xbd11fc21	-0.03564084
125	0xbd207cf7	-0.039181676
126	0xbc92664d	-0.017871046
127	0xbd4b6f19	-0.049666498
128	0xbd1d30ae	-0.038376503
129	0x3d1210a1	0.03566039
130	0x3d4d134d	0.050067235
131	0xbd0431ee	-0.03227418
132	0xbbe30206	-0.0069277314
133	0x3c1df673	0.009641278
134	0xbd5104d5	-0.05103
135	0x3d79d09d	0.060989965
136	0xbd179b44	-0.037013307
137	0xbd60c9fb	-0.054880124
138	0x3d1628e8	0.036660105
139	0xbc487080	-0.012233853
140	0xbce62cc4	-0.028097518
141	0x3c7c9bef	0.015418037
142	0x3cf9551c	0.030436091
143	0xbd721135	-0.05909844
144	0x3cd5308e	0.02602413
145	0x3d4010a6	0.046890877
146	0xbd300633	-0.042974662
147	0xbcea48c6	-0.028599154
148	0xbd17d88d	-0.037071753
149	0xbc94a585	-0.018145332
150	0xbd0facac	-0.035076782
151	0xbd4d9070	-0.050186574
152	0xbd2f7364	-0.042834654
153	0x3ba728f2	0.0051013166
154	0xbd54d0b4	-0.051956847
155	0xbd535e60	-0.051603675
156	0xbd323949	-0.043511663
157	0x3d1f40be	0.038880102
158	0x3d22f1a9	0.039781246
159	0x3d5f5a61	0.05452955
160	0x3d3e0ac7	0.046396997
161	0x3c92da83	0.01792646
162	0xbbf2f6da	-0.007414681
163	0xbcdcc9bb	-0.026951661
164	0xbd3cdf2b	-0.046111267
165	0x3cf6af43	0.030112868
166	0x3d8a2f8f	0.06747352
167	0x3c405882	0.011739852
168	0x3d80e45d	0.06293557
169	0xbd3868c9	-0.045021806
170	0x39b61b45	0.00034734063
171	0x3cd43769	0.025905328
172	0xbd75d7fe	-0.06002044
173	0xbd7f6f17	-0.062361803
174	0x3d3f7103	0.046738636
175	0x3d0c35fb	0.034231167
176	0x3cac5d61	0.02104062
177	0xbd6cc0a4	-0.057800904
178	0xbbb8a3a4	-0.005634742
179	0xbd2abf54	-0.04168637
180	0x3cb69f31	0.022292705
181	0xbd80dbde	-0.06291936
182	0x3c935d0c	0.017988704
183	0xbd79e74f	-0.06101161
184	0xbd34e5fd	-0.044164646
185	0x3c99f27f	0.018792389
186	0xbc167c5f	-0.009184926
187	0x3c7b90d0	0.01535435
188	0xbdc19669	-0.094525166
189	0xbd4957e1	-0.049156073
190	0x3d2e7d9d	0.042600263
191	0xbcc27661	-0.023738088
192	0xbc598fdc	-0.013278928
193	0xbcbe1866	-0.023204993
194	0x3cc8c16a	0.02450629
195	0xbd761b26	-0.060084485
196	0xbd9567b1	-0.07295168
197	0xbd8777e0	-0.06614661
198	0xbcc82150	-0.024429947
199	0xbc9ec489	-0.019380825
200	0xbd181429	-0.0371286
201	0xbd3521ef	-0.044221815
202	0xbd07a9aa	-0.03312079
203	0x3d25f929	0.04052082
204	0xbda0b828	-0.07847625
205	0x3cee7d55	0.029112497
206	0x3d77ba40	0.060480356
207	0xbd543d72	-0.05181641
208	0x3ba41738	0.0050076507
209	0xbda0d194	-0.07852474
210	0xbd147cbb	-0.036251765
211	0xbd1af1d1	-0.03782827
212	0xbc661d1b	-0.014045025
213	0xbd40baa6	-0.047053
214	0xbdcf0a89	-0.10109431
215	0x3cb0a269	0.021561818
216	0xbd7b1a9c	-0.061304674
217	0xbdb7a1fe	-0.089664444
218	0xbd366587	-0.044530418
219	0xbd8b7059	-0.06808538
220	0xbd454c5e	-0.048168533
221	0xbc828afc	-0.015935414
222	0x374d8c87	1.2251671e-05
223	0x3c208764	0.009797905
224	0xbd7d8024	-0.061889783
225	0xbd6528b6	-0.055947028
226	0x3baf1c24	0.005343931
227	0xbd445862	-0.04793585
228	0xbce05cab	-0.027387938
229	0xbd0bee24	-0.034162655
230	0xbd496b33	-0.0491745
231	0xbb61f756	-0.00344797
232	0x3b635ab6	0.003469152
233	0xbd72b6a4	-0.05925621
234	0xbd11bbeb	-0.035579603
235	0xbd368bbe	-0.044566862
236	0xbd648b82	-0.055797108
237	0x3c6d7f73	0.014495718
238	0xbb1301f6	-0.0022431589
239	0x3c59ed65	0.013301228
240	0xbcbc8921	-0.023014607
241	0x3d6257eb	0.055259626
242	0xbd471e6f	-0.048613008
243	0x3d1b8ffe	0.03797912
244	0xbcfe629c	-0.03105288
245	0xbd1428d9	-0.036171768
246	0x3c8ccda6	0.017187905
247	0x3cdf5b6f	0.027265279
248	0x3d714c5d	0.058910716
249	0xbd354f64	-0.044265166
250	0xbd94466e	-0.07239996
251	0xbd92f86e	-0.071762905
252	0x3d09af80	0.033614635
253	0xbb2f6a63	-0.0026766292
254	0xbd83b51f	-0.064310305
255	0x3c2e53e0	0.010640115

fc1.bias f4 [120]
0	0xbd3b7d8a	-0.04577402
1	0xbd5e287e	-0.054237835
2	0x3dc0aa65	0.094075
3	0xbc1af68c	-0.009458195
4	0xbd5ebb3a	-0.054377772
5	0xbc95bb6f	-0.018277852
6	0x3d14fd01	0.036374096
7	0xbd372535	-0.044713218
8	0xbda86a5f	-0.08223414
9	0xbd642a87	-0.05570462
10	0x3e3bfe63	0.1835876
11	0xbd6039b1	-0.05474252
12	0xbd81fced	-0.0634707
13	0x3e25f864	0.16208035
14	0xbda80119	-0.08203334
15	0x3cbe9d02	0.023268227
16	0xbd540f1e	-0.05177223
17	0xbd5223bc	-0.05130361
18	0x3d910e21	0.07082773
19	0xbdea0482	-0.11426641
20	0x3e25c693	0.16189031
21	0xbdc51c39	-0.09624524
22	0x3e0fc1d6	0.14038786
23	0xbe0944dd	-0.13405176
24	0xbcb0f9b1	-0.021603437
25	0x3dd70108	0.104982436
26	0xbd265eef	-0.04061788
27	0xbd933493	-0.07187762
28	0x3e198db0	0.14995456
29	0x3e1b2ec9	0.15154566
30	0x3e3d14ef	0.18465017
31	0x3e24b645	0.16085155
32	0xbe3618b7	-0.17782865
33	0xbd8e487d	-0.0694742
34	0x3d7d5be6	0.06185522
35	0xbdb0d252	-0.086338654
36	0x3e37083c	0.17874235
37	0x3e0e72b6	0.13910946
38	0x3dfeda01	0.12443925
39	0xbdf11b72	-0.11772813
40	0xbd941148	-0.07229859
41	0xbd858ebc	-0.06521365
42	0xbe0d396a	-0.13791433
43	0x3df00292	0.1171924
44	0x3c62a590	0.0138334185
45	0x3caff75f	0.02148026
46	0xbd450564	-0.048100844
47	0x3e039f1c	0.12853664
48	0xbdfd784b	-0.1237646
49	0xbdaaa3d3	-0.08332028
50	0x3dba3e80	0.09093952
51	0xbc933f75	-0.017974595
52	0x3db7746a	0.08957751
53	0x3d0ece9c	0.034865007
54	0xbd33f3fd	-0.043933857
55	0x3e2d2316	0.16907915
56	0xbc88848c	-0.016664766
57	0xbd07bafa	-0.0331373
58	0xbe10bd77	-0.14134775
59	0x3e2ca46c	0.16859597
60	0xbcf746a5	-0.030185053
61	0x3e655887	0.22397052
62	0xbcdbbf0e	-0.0268245
63	0x3df9ddcf	0.1220051
64	0xbd695d60	-0.056973815
65	0x3e3325d2	0.17494896
66	0x3e3c9c9b	0.18419115
67	0x3e2bd266	0.1677948
68	0x3c00e127	0.0078661805
69	0xbdb76b71	-0.0895604
70	0xbcafde4d	-0.021468306
71	0x3db18bd0	0.08669245
72	0xbd800801	-0.062515266
73	0x3de9d15c	0.11416885
74	0xbdfbc2a5	-0.12292985
75	0x3df6e90f	0.12056171
76	0x3e12d9cd	0.14340897
77	0x3dfc160e	0.12308894
78	0xbd92d39c	-0.071692675
79	0xbd7bd24c	-0.06147985
80	0xbd5928c3	-0.05301739
81	0x3dc2cf56	0.095122024
82	0xbd2cdbee	-0.04220193
83	0xbe151799	-0.14559783
84	0x3d5aa05c	0.053375587
85	0xbd807b98	-0.06273574
86	0x3e24ba5b	0.16086714
87	0x3d166016	0.03671273
88	0xbd804f42	-0.06265117
89	0xbd4bed95	-0.049787123
90	0xbe1315b6	-0.14363751
91	0xbdbcc49d	-0.092171885
92	0xbbfec88c	-0.007775372
93	0x3c919f3c	0.017776124
94	0xbda73017	-0.08163469
95	0xbbdda9ef	-0.0067646424
96	0xbe01ff2b	-0.12694995
97	0xbcc6bd76	-0.024260264
98	0xbe0f3279	-0.13984098
99	0xbe200872	-0.15628222
100	0x3e1cee7f	0.15325354
101	0xbd80f813	-0.062973164
102	0x3e54cd08	0.20781338
103	0xbe0f1196	-0.13971552
104	0xbd26976c	-0.04067175
105	0xbdd59ba0	-0.10430074
106	0xbd1a3b6d	-0.03765433
107	0xbdda5c68	-0.10662156
108	0x3e45b8fd	0.19308849
109	0xbd6baf3b	-0.05754016
110	0x3e27d76e	0.16390774
111	0xbd5e4bf3	-0.05427165
112	0x3e4f6bad	0.20255919
113	0x3e3d682c	0.1849677
114	0x3e2b37ac	0.16720456
115	0x3d3541e4	0.04425229
116	0xbd8c35fb	-0.068462335
117	0x3e0641ec	0.13111085
118	0xbcfd7a85	-0.03094221
119	0x3e32126f	0.17389844

fc2.weight f4 [60, 120]
0	0xbcc89afe	-0.024487969
1	0x3cea1648	0.028575078
2	0x3bac9f17	0.0052679884
3	0xbb29a4b2	-0.002588552
4	0x3db61b45	0.0889192
5	0x3d052197	0.032502737
6	0xbc62dbde	-0.013846366
7	0x3d8d1db0	0.06890428
8	0x3d5c36e9	0.053763304
9	0x3d7b62c2	0.06137348
10	0xbda1ea3c	-0.07906005
11	0xbd916842	-0.07099964
12	0x3b12e2d2	0.0022413027
13	0xbcb29fab	-0.021804651
14	0x3dc9f3e5	0.09860972
15	0xbdb26f23	-0.08712604
16	0x3b4a98a7	0.0030913742
17	0x3d9ced17	0.07662409
18	0xbe00d074	-0.12579519
19	0x3dbd75d4	0.092509896
20	0xbca98de9	-0.02069755
21	0x3e275c12	0.16343716
22	0xbc816b70	-0.0157983
23	0xbd96fc41	-0.07372332
24	0xbcdf16ce	-0.027232554
25	0xbe13c7dc	-0.14431709
26	0x3dc4f70e	0.096174344
27	0xbc33b562	-0.010968538
28	0x3d8fa79f	0.07014393
29	0xbd97c263	-0.07410123
30	0xbcceb23a	-0.02523147
31	0xbdf4ffbb	-0.11962839
32	0x3d5da652	0.054113694
33	0x3e0d15c6	0.13777837
34	0xbce31dda	-0.027724195
35	0x3dce1be4	0.100639135
36	0xbe1f36f5	-0.15548308
37	0xbe0656dd	-0.13119073
38	0xbde33a68	-0.110951245
39	0x3df88f1f	0.12136673
40	0x3dd30ad2	0.10304798
41	0xbd919f75	-0.07110492
42	0xbcd1bcb0	-0.025602669
43	0x3c9acbf4	0.01889608
44	0x3c8a364e	0.016871598
45	0xbcbe7c38	-0.023252591
46	0x3da2004e	0.07910214
47	0xbd79c399	-0.060977552
48	0x3d5a4bac	0.053294823
49	0x3d33188f	0.043724593
50	0x3ca4eec6	0.020133387
51	0xbc93d617	-0.018046422
52	0xbe1b7c02	-0.15184024
53	0xbe044e9c	-0.12920612
54	0x3e2021fb	0.15637963
55	0xbd6b453a	-0.057439066
56	0x3e1c5110	0.15265298
57	0x3dc43c0b	0.09581765
58	0x3dcc28a1	0.09968687
59	0xbdf40cf8	-0.11916536
60	0x3dc52c30	0.09627569
61	0x3db176d9	0.086652465
62	0xbe28e800	-0.16494751
63	0xbdacdf09	-0.08440978
64	0x3d513d14	0.05108364
65	0xbdb8fb21	-0.09032274
66	0xbdb0c626	-0.08631544
67	0x3d802d0f	0.06258594
68	0xbb72f7f1	-0.0037074054
69	0x3dceee12	0.10104002
70	0x3ce3e3bd	0.027818555
71	0xbdfa9957	-0.122362785
72	0x3dbe26c2	0.09284736
73	0xbd622856	-0.05521425
74	0x3d78c65c	0.060736045
75	0xbdae4b7c	-0.08510491
76	0x3ccb2adf	0.024800716
77	0xbd21d119	-0.03950605
78	0x3d82abce	0.063804254
79	0x3dd37fa2	0.103270784
80	0x3d9583f3	0.07300558
81	0xbdccb033	-0.09994545
82	0x3e37f1b4	0.17963296
83	0xbad099fe	-0.0015915034
84	0x3d9a3cae	0.07531105
85	0x3df04114	0.11731163
86	0xbb46193d	-0.0030227446
87	0xbdcf79eb	-0.10130676
88	0x3d87019f	0.06592106
89	0x3e1e5a89	0.15464224
90	0x3d6186a0	0.05506003
91	0xbce18c1c	-0.02753263
92	0x3d8155a7	0.06315165
93	0xbc3b002b	-0.011413614
94	0x3c5f6e87	0.013637192
95	0x3d4c96f8	0.049948663
96	0x3be9aa96	0.007130931
97	0x3d7ef198	0.06224212
98	0x3b9ee52a	0.004849096
99	0x3dc27ce3	0.094964765
100	0xbda3ec63	-0.080040716
101	0x3e0e9036	0.139222
102	0x3d6eebba	0.058330275
103	0x3c8ccac5	0.017186532
104	0xbd74e8ab	-0.059792202
105	0xbd636539	-0.055516455
106	0xbd3691ff	-0.044572826
107	0x3cab6382	0.020921472
108	0xbdaf1bd1	-0.085502274
109	0xbc951c67	-0.01820202
110	0xbe30c8dc	-0.17264122
111	0x3bbe19bb	0.005801407
112	0x3cc4af9c	0.024009518
113	0xbc60b57d	-0.013715145
114	0x3d3a0a94	0.045420244
115	0xbbaac6bb	-0.005211679
116	0x3e167a20	0.14695024
117	0x3d650deb	0.055921476
118	0xbcff0bbc	-0.031133525
119	0xbdd98692	-0.106213704
120	0x3d227f71	0.03967232
121	0xbd6e8ae5	-0.05823793
122	0x3de65d48	0.11248261
123	0x3dd0c990	0.10194695
124	0xbd6f4c8e	-0.058422618
125	0xbc7be49a	-0.015374327
126	0x3d9df35c	0.07712433
127	0xbcd44a2c	-0.025914274
128	0xbdd19be8	-0.10234815
129	0x3dc649d8	0.09682053
130	0x3d202ee9	0.039107237
131	0xbda17def	-0.07885348
132	0x3d3ab05a	0.04557834
133	0x3db413c8	0.087928355
134	0x3da06b84	0.07833007
135	0x3d2aa150	0.041657746
136	0x3c21ad46	0.009867972
137	0x3d8210e8	0.06350881
138	0x3e56ad57	0.20964561
139	0xbdc4007d	-0.09570406
140	0xbc8ce2f3	-0.017198062
141	0xbd28a1a8	-0.041169792
142	0x3d822785	0.06355194
143	0xbd9f198e	-0.07768546
144	0xbc336337	-0.010948948
145	0x3d0e78a0	0.034783006
146	0xbd219d65	-0.039456744
147	0x3cf1f3c5	0.029535184
148	0xbb6b4078	-0.003589658
149	0x3e3cb8b6	0.18429837
150	0x3b14b0ca	0.0022688382
151	0x3b893bd9	0.0041880426
152	0xbcc5826d	-0.024110043
153	0xbd9de067	-0.07708817
154	0xbcae202f	-0.02125558
155	0xbdb8bafc	-0.090200394
156	0x3c63281d	0.013864544
157	0x3d9c13ac	0.076209396
158	0x3e0288cb	0.12747495
159	0xbe0f218e	-0.13977644
160	0x3d5ad99b	0.05343018
161	0x3c9e48bd	0.019321794
162	0x3ce4f3b4	0.027948238
163	0x3c955505	0.018229017
164	0x3d5e3002	0.054245003
165	0x3b3215c4	0.0027173618
166	0xbc39f1e0	-0.011349171
167	0x3e2456d9	0.16048755
168	0xbc0c19fa	-0.008551115
169	0xbc3b88e5	-0.011446212
170	0x3cfb2f34	0.030662157
171	0x3db9a933	0.09065475
172	0x3cd0db33	0.025495147
173	0x3e335e63	0.17516474
174	0xbe2b184b	-0.16708486
175	0x3d0ce7a1	0.034400586
176	0xbbf7ac12	-0.007558354
177	0x3ae6091a	0.001755032
178	0x3d069d4c	0.032864854
179	0x3d674ea9	0.0564715
180	0x3d3f9956	0.046777092
181	0x3d822b53	0.0635592
182	0x3e2bdc43	0.16783242
183	0x3d69eed4	0.05711253
184	0xbe00fc2b	-0.12596194
185	0x3d1062aa	0.035250343
186	0x3e042cb7	0.12907682
187	0xbd6a41ca	-0.057191648
188	0x3cd93880	0.0265162
189	0xbd36a4b3	-0.044590663
190	0xbbc03f9a	-0.005866957
191	0x3e330924	0.17483956
192	0x3d417046	0.047226213
193	0x3dbb07f8	0.09132379
194	0x3d5244f7	0.0513353
195	0x3da63f23	0.08117511
196	0x3dde45b0	0.108531356
197	0x3d650043	0.055908453
198	0x3c893f33	0.016753769
199	0x3d12097e	0.035653584
200	0xbd86a32a	-0.0657409
201	0x3e0fe631	0.14052655
202	0xbe3051cf	-0.17218708
203	0x3d9a8c71	0.07546318
204	0x3cd0597f	0.0254333
205	0xbe118d0d	-0.14213963
206	0x3dfcdc8c	0.123467535
207	0x3d4d8c19	0.050182436
208	0xbd04e367	-0.03244343
209	0xbe0d0d15	-0.13774522
210	0x3c87bb64	0.016568847
211	0xbc3c1769	-0.011480191
212	0x3d954a24	0.07289532
213	0x3cdb89ab	0.026799044
214	0xbc437fde	-0.011932341
215	0xbcdc367d	-0.02688145
216	0xbda4fb20	-0.08055711
217	0xbaa7a299	-0.0012789547
218	0x3d429a16	0.04751023
219	0xbdc86c31	-0.09786261
220	0x3e1c763a	0.15279475
221	0xbda79ba9	-0.08183987
222	0x3d6f32bd	0.058397997
223	0xbe4203cb	-0.1894676
224	0xbd82428b	-0.06360348
225	0x3ce4cd1b	0.027929833
226	0x3d5853de	0.052814357
227	0xbd8034b6	-0.06260054
228	0x3dc53d08	0.096307814
229	0x3da29b29	0.07939751
230	0x3e45d840	0.19320774
231	0x3d8e3b69	0.06944925
232	0x3dcded24	0.100549966
233	0x3df192dc	0.11795589
234	0xbbea3fd3	-0.0071487217
235	0xbd9b625f	-0.07587122
236	0xbd72ec20	-0.059307218
237	0x3d592162	0.053010352
238	0x3d907f50	0.07055533
239	0x3d9e8211	0.07739652
240	0xbcfe72e2	-0.03106064
241	0x3da920f2	0.08258237
242	0xbd7f65d4	-0.06235297
243	0x3d7219c2	0.059106596
244	0xbd9fa34f	-0.077948205
245	0xbd7c063c	-0.061529383
246	0xbd8938d2	-0.06700291
247	0x3d894a80	0.06703663
248	0x3d9c13ec	0.07620987
249	0xbdaae495	-0.0834438
250	0xbcf0cb67	-0.029393865
251	0x3d86f9df	0.06590628
252	0x3dbe136f	0.092810504
253	0xbb2e1ab3	-0.0026566207
254	0xbcf9f64c	-0.030512951
255	0xbd84b3b0	-0.06479585

fc2.bias f4 [60]
0	0xbe16ff0b	-0.14745729
1	0x3e29fd1e	0.16600463
2	0x3c27dc14	0.010245342
3	0x3cfb45d0	0.030672938
4	0x3d12488a	0.03571371
5	0xbe0e18fd	-0.1387672
6	0xbd415105	-0.047196407
7	0x3d924a89	0.07143123
8	0x3e21c3af	0.15797304
9	0x3dd8012d	0.10547099
10	0xbe05f5c1	-0.13082029
11	0xbcd2d0a3	-0.025734251
12	0xbda9ac40	-0.08284807
13	0x3e4da8c9	0.20083918
14	0xbd586f85	-0.05284073
15	0x3e4bcaeb	0.19901626
16	0xbdc0aad9	-0.094075866
17	0xbc7543ae	-0.014969749
18	0xbdb3a4c8	-0.08771664
19	0xbc1161ef	-0.008873447
20	0xbdc2b61c	-0.09507391
21	0xbd8dfd84	-0.0693312
22	0x3d433a65	0.04766311
23	0xbdb5127b	-0.088414155
24	0x3e0d5f6d	0.13805933
25	0x3e0da54e	0.1383259
26	0xbde91c7e	-0.113823876
27	0xbdbbf77b	-0.091780625
28	0x3ddfc711	0.10926641
29	0x3e510dfb	0.2041549
30	0x3c365689	0.01112903
31	0x3e543b2e	0.207257
32	0x3d0a1a5d	0.03371655
33	0xbdfa1705	-0.12211422
34	0x3e2a5383	0.1663342
35	0x3b10ff46	0.002212481
36	0xbe005709	-0.12533201
37	0x3db1befb	0.08679005
38	0x3c99593a	0.018719304
39	0xbdad087e	-0.084488854
40	0xbc0a2352	-0.008431273
41	0xbda0fa33	-0.07860222
42	0x3e0c123d	0.13678832
43	0xbd7b2a89	-0.06131986
44	0xbcf2de83	-0.029647117
45	0x3df526da	0.11970301
46	0xbdc9cbc1	-0.09853316
47	0x3e4dd24b	0.20099752
48	0x3e103443	0.14082436
49	0xbd58ad95	-0.052899916
50	0x3e58c421	0.21168567
51	0xbd3d903f	-0.046280142
52	0xbd6f1258	-0.058367103
53	0xbdd7cc83	-0.105370544
54	0x3e5cf392	0.2157729
55	0xbcc8c7b7	-0.024509294
56	0x3e2df650	0.16988492
57	0x3e62c2fa	0.2214469
58	0x3e265804	0.16244513
59	0xbe04ef3f	-0.1298189

out.weight f4 [1, 60]
0	0x3e0dadcf	0.13835834
1	0xbe3d22a4	-0.18470246
2	0x3d995f41	0.07488871
3	0x3dd10604	0.102062255
4	0xbe31fde5	-0.1738201
5	0x3deb2d42	0.114832416
6	0x3b4d8c86	0.0031364276
7	0x3c9f4177	0.019440396
8	0xbe0b1dca	-0.13585582
9	0xbdb24a85	-0.0870562
10	0x3e203051	0.15643431
11	0x3e280a67	0.16410218
12	0x3e05b2ab	0.13056438
13	0xbe3a5415	-0.18196137
14	0xbd8b7c2e	-0.06810795
15	0xbe4d2357	-0.20033012
16	0x3dec3e9b	0.115353785
17	0x3ddb3a4e	0.1070448
18	0x3e21b970	0.15793395
19	0x3e21b946	0.15793332
20	0x3da07fae	0.07836853
21	0x3e10e21f	0.14148758
22	0x39588f02	0.0002065264
23	0x3e15d9bf	0.14633845
24	0xbdeb118d	-0.11477957
25	0xbdee9076	-0.116486475
26	0x3dd361a9	0.103213616
27	0x3dce001a	0.10058613
28	0xbe1f5daf	-0.15563081
29	0xbdf58236	-0.119877264
30	0xbc929a4f	-0.017895846
31	0xbe1ed980	-0.15512657
32	0x3db9f0e0	0.090791464
33	0x3db2d022	0.087311044
34	0xbe450d9b	-0.19243471
35	0x3d7f84c8	0.06238249
36	0x3db7c6a7	0.08973437
37	0x3e032823	0.1280828
38	0x3cf29769	0.029613214
39	0x3d95d6c5	0.07316355
40	0xbdaf5b7a	-0.0856237
41	0x3da1c19e	0.07898258
42	0xbe82db53	-0.25557956
43	0x3e3a5f2d	0.18200369
44	0x3dcbc40e	0.09949504
45	0xbe076947	-0.13223754
46	0x3db36337	0.08759158
47	0xbe08a89d	-0.13345571
48	0xbdf03bab	-0.11730131
49	0x3de68b67	0.11257058
50	0xbe15f1c1	-0.14643003
51	0xbd3e5aa5	-0.046473164
52	0x3dc90390	0.098151326
53	0x3d04a348	0.03238228
54	0xbe30358e	-0.1720793
55	0x3e0aca85	0.13553818
56	0xbdf4b1ee	-0.11948
57	0xbe1052ed	-0.14094134
58	0xbe2409b8	-0.16019332
59	0x3d8af8a3	0.06785705
